xlstm_ts_model.pth (torch, 521810 bytes, 56 tensors)

blocks.0.xlstm_norm.weight f4 [64]
0	0xbb9b6b06	-0.004742983
1	0x3b31a1a1	0.0027104395
2	0x3c185eaa	0.009299913
3	0x3c13070d	0.008973849
4	0xbb026c8c	-0.0019901125
5	0x3bc6b846	0.0060644476
6	0xbad8302a	-0.0016493846
7	0xbb107b02	-0.0022045975
8	0x3dc1451d	0.094370104
9	0xbae6be95	-0.0017604405
10	0x3c13ac73	0.009013283
11	0xbab7a49e	-0.0014010852
12	0x3c851736	0.01624642
13	0xbb0e0454	-0.002167006
14	0x3b901e1d	0.004398121
15	0x3b853c15	0.004066
16	0x3ab7a622	0.0014011303
17	0x3bbef9ec	0.005828133
18	0xbb1f51a7	-0.0024310143
19	0x3c82bc1d	0.01595884
20	0x3b410525	0.002945253
21	0x3b9e61bb	0.0048334277
22	0xb99b8769	-0.00029664792
23	0xbb79eab3	-0.0038134276
24	0xbac49df6	-0.0015000689
25	0xbb67a64b	-0.003534692
26	0x3bc86e66	0.006116676
27	0x3b8851f9	0.0041601625
28	0xbc312c18	-0.010813735
29	0x39d51239	0.00040640103
30	0x3d47e3eb	0.048801344
31	0x3bcc2aed	0.006230703
32	0xbba78bf5	-0.0051131197
33	0x3b858cdf	0.004075631
34	0x3ab119b4	0.0013511688
35	0xbc0b4ae1	-0.008501739
36	0xbc0bfbfd	-0.008543965
37	0xba9adb6b	-0.0011814659
38	0x3ae590c4	0.0017514457
39	0xbc12626e	-0.0089346
40	0xbc340dc4	-0.01098961
41	0x3ae0d497	0.00171532
42	0xbbfc7ef0	-0.007705562
43	0xbb4c9eba	-0.0031222538
44	0xbb1d7867	-0.0024028064
45	0xb9905697	-0.00027530335
46	0x3b946506	0.0045286445
47	0x3be84601	0.0070884232
48	0xb991e7cf	-0.00027829266
49	0x3c83602f	0.016037075
50	0xbcab2b82	-0.02089477
51	0xbb6e2400	-0.0036337376
52	0x3c25cd11	0.010119692
53	0xbc351f20	-0.011054784
54	0xba333fe3	-0.0006837828
55	0xbbc9fba0	-0.0061640292
56	0x39689068	0.0002217904
57	0xbc523ca1	-0.012831838
58	0x3be24a0c	0.0069057997
59	0x3b791d8f	0.0038012003
60	0xbc0d283c	-0.00861555
61	0xbc6542ca	-0.013992975
62	0xbad52e6f	-0.0016264449
63	0x3bbb7b70	0.005721502

blocks.0.xlstm.learnable_skip f4 [128]
0	0x3f73ea05	0.9527896
1	0x3f7e3fd5	0.9931615
2	0x3f7d9be0	0.9906597
3	0x3f7a97b5	0.97887737
4	0x3f7e1120	0.9924488
5	0x3f824d4b	1.0179838
6	0x3f7fc544	0.9991038
7	0x3f7daf30	0.9909544
8	0x3f8c9c44	1.0985188
9	0x3f81d759	1.0143844
10	0x3f7dc027	0.99121326
11	0x3f7efb44	0.9960215
12	0x3f7ec393	0.9951717
13	0x3f802026	1.0009811
14	0x3f809ddf	1.0048178
15	0x3f7c2946	0.9850048
16	0x3f7fe27d	0.9995497
17	0x3f80038f	1.0001086
18	0x3f819a71	1.0125257
19	0x3f7c4ea4	0.98557496
20	0x3f80ebbc	1.007194
21	0x3f8836e4	1.0641751
22	0x3f7cba19	0.9872146
23	0x3f7ea014	0.9946301
24	0x3f7862c7	0.9702572
25	0x3f7c05d4	0.98446393
26	0x3f7ffee4	0.9999831
27	0x3f7e0b7e	0.99236286
28	0x3f7bd71b	0.983751
29	0x3f80938e	1.004503
30	0x3f80178c	1.0007186
31	0x3f80e2e4	1.0069242
32	0x3f7fbe55	0.998998
33	0x3f8047f0	1.0021954
34	0x3f7cdf73	0.98778456
35	0x3f7ed8e1	0.9954968
36	0x3f75babe	0.9598807
37	0x3f80f765	1.0075499
38	0x3f81b4ca	1.0133297
39	0x3f7ab811	0.97937113
40	0x3f7fea0d	0.9996651
41	0x3f7df7ef	0.9920644
42	0x3f7bc378	0.98345137
43	0x3f7ecfe7	0.99535984
44	0x3f7e6c81	0.99384314
45	0x3f77e57f	0.9683456
46	0x3f806197	1.0029782
47	0x3f7b5dac	0.98189807
48	0x3f7fd9fb	0.99941987
49	0x3f793a9e	0.9735507
50	0x3f7d5b98	0.98967886
51	0x3f7f824c	0.9980819
52	0x3f7e6302	0.99369824
53	0x3f820ce0	1.0160179
54	0x3f7ec5d8	0.99520636
55	0x3f7f1709	0.99644524
56	0x3f84ab01	1.0364686
57	0x3f7fd87d	0.9993971
58	0x3f7ba028	0.98291254
59	0x3f80bf37	1.0058354
60	0x3f80283a	1.0012276
61	0x3f819610	1.012392
62	0x3f7ec5c7	0.99520534
63	0x3f7f92f8	0.9983363
64	0x3f7e110c	0.9924476
65	0x3f8038a5	1.0017287
66	0x3f7fcbe9	0.9992052
67	0x3f7e6a15	0.9938062
68	0x3f808c8c	1.0042892
69	0x3f80ee91	1.0072805
70	0x3f7c60ec	0.9858539
71	0x3f7f2387	0.99663585
72	0x3f7d44fb	0.9893338
73	0x3f80df5b	1.0068163
74	0x3f8160e8	1.0107698
75	0x3f7d6620	0.98983955
76	0x3f80e2eb	1.006925
77	0x3f7f4ac9	0.9972349
78	0x3f7e812f	0.9941587
79	0x3f8000ac	1.0000205
80	0x3f7dbfa6	0.9912056
81	0x3f7b702a	0.98218024
82	0x3f80d553	1.0065101
83	0x3f814110	1.009798
84	0x3f803e0a	1.0018933
85	0x3f7ff372	0.99980843
86	0x3f8051aa	1.0024922
87	0x3f830ba0	1.0237923
88	0x3f836dfd	1.0267941
89	0x3f802ad6	1.0013072
90	0x3f7cdcdd	0.9877451
91	0x3f82c2e0	1.0215721
92	0x3f794a46	0.9737896
93	0x3f80ce92	1.006304
94	0x3f7fc511	0.99910074
95	0x3f82b5d7	1.0211743
96	0x3f811d47	1.008706
97	0x3f7ee2f0	0.9956503
98	0x3f7fa9bd	0.99868375
99	0x3f81d197	1.0142087
100	0x3f7e7b8c	0.9940727
101	0x3f802fdd	1.0014607
102	0x3f805a6b	1.0027593
103	0x3f803dc3	1.0018848
104	0x3f80aaca	1.0052121
105	0x3f80e279	1.0069114
106	0x3f7c5d7d	0.9858015
107	0x3f81d1c3	1.0142139
108	0x3f7fed8e	0.99971855
109	0x3f7d1c0d	0.9887093
110	0x3f8020e8	1.0010042
111	0x3f7d9cc1	0.9906731
112	0x3f7f6b3d	0.9977301
113	0x3f81cc15	1.0140406
114	0x3f8137ae	1.0095117
115	0x3f7f35c3	0.9969141
116	0x3f8039da	1.0017655
117	0x3f81e590	1.0148182
118	0x3f7e1a8a	0.99259245
119	0x3f80bebc	1.0058208
120	0x3f8153bd	1.010368
121	0x3f8005f3	1.0001816
122	0x3f7bc503	0.9834749
123	0x3f7d15bc	0.9886129
124	0x3f81e082	1.0146639
125	0x3f82875b	1.0197557
126	0x3f81498e	1.0100572
127	0x3f7f29c0	0.9967308

blocks.0.xlstm.proj_up.weight f4 [256, 64]
0	0x3dd671a7	0.10470896
1	0xbd7ea82b	-0.062172096
2	0xbdb6d425	-0.08927182
3	0x3d243872	0.040092893
4	0x3df6156c	0.12015805
5	0x3df74c8f	0.12075149
6	0xbd3d57cb	-0.046226304
7	0xbcea62ef	-0.028611628
8	0xbd545f50	-0.05184871
9	0x3c068268	0.008209802
10	0x3d164535	0.036687095
11	0x3bd989ae	0.006638727
12	0x3cb39022	0.021919314
13	0x3d2508c2	0.040291555
14	0x3db47554	0.08811441
15	0x3e142f45	0.14471157
16	0xbd96d254	-0.07364336
17	0xbda65d2f	-0.08123242
18	0xbe28fb25	-0.16502054
19	0x3d1d642b	0.038425606
20	0xbc37b005	-0.0112114
21	0xbe1293c5	-0.14314182
22	0x3daf1783	0.085494064
23	0xbe0d7946	-0.13815793
24	0xbcf57a4d	-0.029965544
25	0xbd2e940e	-0.042621665
26	0x3b5b37f5	0.00334501
27	0xbd1feaa9	-0.03904215
28	0x3c771a3c	0.015081938
29	0x3d2a7f7f	0.041625496
30	0xbd0fac92	-0.035076685
31	0xbb027384	-0.0019905278
32	0x3e102da8	0.14079916
33	0xbdd91382	-0.10599424
34	0x3ce7e7a3	0.028308695
35	0xbd94ba5d	-0.072621085
36	0xbd2732ef	-0.04082006
37	0x3e07c7e8	0.13259852
38	0x3a66f14b	0.0008809759
39	0xbd2ca183	-0.042146217
40	0xbc2ddec8	-0.010612197
41	0x3dfd908e	0.12381087
42	0xbc96b67b	-0.01839756
43	0x3def7558	0.116923034
44	0x3d2a8cb7	0.041638102
45	0xbe55e971	-0.20889832
46	0xbc4fdef9	-0.012687438
47	0x3d1c30af	0.038132366
48	0x3cefb0b9	0.029259073
49	0x3cd5a491	0.026079448
50	0x3df7107f	0.12063693
51	0x3d8aecf6	0.06783478
52	0xbcf48cfd	-0.029852385
53	0xbca54e9b	-0.020179084
54	0x3d6e5ffc	0.058197007
55	0x3aa5c52c	0.0012647263
56	0xbd34736d	-0.04405539
57	0x3c40ffd5	0.011779745
58	0x3dafe138	0.08587879
59	0xbd6c6802	-0.057716377
60	0x3b11f5b3	0.0022271692
61	0xbdb962c7	-0.090520434
62	0x3c5a2f90	0.013317004
63	0x3d5a2718	0.05325994
64	0x3e3e12e2	0.1856189
65	0xbcc74d16	-0.02432875
66	0x3e507e64	0.20360714
67	0x3e1661da	0.14685765
68	0xbd8696b4	-0.06571713
69	0x3d24e24b	0.040254872
70	0x3e148ead	0.14507551
71	0x3d66c222	0.056337483
72	0x3e4b655f	0.19862889
73	0xbe290867	-0.16507111
74	0x3b389330	0.0028163902
75	0x3d3799d8	0.04482445
76	0x3ded5a40	0.115894794
77	0x3e18e181	0.14929773
78	0x3d126b95	0.03574713
79	0xbc920b5b	-0.01782768
80	0xbd8f1259	-0.069859214
81	0xbd40fc98	-0.047115892
82	0xbd7b14e9	-0.06129924
83	0x3e3152e1	0.17316772
84	0x3dc53413	0.09629073
85	0x3dd80dd5	0.10549513
86	0x3c8f90d7	0.01752512
87	0xbd2b96c8	-0.041891843
88	0x3d05cf7b	0.032668572
89	0x3e055586	0.13020906
90	0x3d03baa7	0.032160427
91	0x3de45261	0.11148525
92	0x3cf705df	0.030154167
93	0x3d043c5a	0.03228412
94	0xbec1814e	-0.37793964
95	0xbcdfce40	-0.027320027
96	0x3d2638ef	0.04058164
97	0xbe2b3ed3	-0.16723184
98	0x3bdff2ad	0.006834349
99	0xbdb2a717	-0.08723276
100	0x3bbbfa4b	0.0057366244
101	0x3d9113b2	0.07083835
102	0xbcf77b94	-0.030210294
103	0xbe42befc	-0.19018167
104	0x3e1593c5	0.14607151
105	0x3d1f45cf	0.038884934
106	0x3da2f6ba	0.079572156
107	0xbd4c2ad3	-0.049845528
108	0x3e36a7d3	0.17837457
109	0x3da2cfbf	0.07949781
110	0xbd77aa7c	-0.06046532
111	0xbdaae961	-0.08345295
112	0xbda03eb6	-0.07824461
113	0x3cef936b	0.029245099
114	0x3de001c4	0.10937837
115	0x3c3ef83b	0.011655862
116	0x3dddc22f	0.10828053
117	0xbe0845db	-0.13307898
118	0xbc4d930d	-0.012547267
119	0x3dd15961	0.10222126
120	0x3c7294e0	0.014806002
121	0xbc9c8c0e	-0.019109752
122	0xbc56ca52	-0.01310976
123	0x3d2f28bd	0.04276346
124	0x3d9ab138	0.07553333
125	0x3e2844ee	0.16432545
126	0x3dfac931	0.122454055
127	0xbe2f8e7a	-0.17144194
128	0x3d5ec3ac	0.054385826
129	0xbdc54d16	-0.096338436
130	0xbcc9b4de	-0.024622377
131	0x3d046088	0.032318622
132	0x3d2d5312	0.04231555
133	0xbd36cfbc	-0.044631705
134	0xbd996d0e	-0.07491504
135	0xbd3bb103	-0.04582311
136	0xbe10e2e5	-0.14149053
137	0x3e169c7e	0.14708135
138	0x3d6b7b41	0.05749059
139	0xbccab7e4	-0.024745889
140	0x3ddc24bb	0.10749193
141	0xbd841152	-0.06448616
142	0x3e3812bb	0.17975895
143	0x3d381e90	0.04495102
144	0xbe03bbee	-0.12864658
145	0x3d9b152b	0.07572397
146	0x3c8f1939	0.017468082
147	0xb9ed839e	-0.00045302225
148	0xbdd06aeb	-0.10176643
149	0x3c89a603	0.016802793
150	0x3c3e5048	0.01161582
151	0x3dbb696e	0.091509685
152	0xbc45b3af	-0.012066766
153	0x3d95f79f	0.073226206
154	0x3d97d424	0.074135095
155	0xbdf70156	-0.12060802
156	0xbd843fc7	-0.06457477
157	0xbcc9c589	-0.024630325
158	0x3d915bf4	0.07097617
159	0x3d96f946	0.07371764
160	0x3e3e77d7	0.18600403
161	0x3d196ae9	0.037455473
162	0x3e0370f5	0.12836058
163	0xbd35a178	-0.04434344
164	0xbde61089	-0.112336226
165	0x3d97614f	0.07391607
166	0x3c20f89a	0.009824896
167	0xbd00f03f	-0.031479117
168	0x3db0c696	0.08631627
169	0xbd85d8a2	-0.0653546
170	0xbddacb97	-0.10683363
171	0xbd825fb3	-0.063659094
172	0x3d659620	0.056051373
173	0x3cb287fe	0.021793362
174	0xbe43522c	-0.19074315
175	0x3c5a11d3	0.013309914
176	0xbd8bf02f	-0.06832921
177	0xbdfa5016	-0.122223064
178	0x3dfa798a	0.12230213
179	0xbdd8e008	-0.105896056
180	0xbcda8358	-0.026673958
181	0xbd9ebf21	-0.07751299
182	0x3d3f7db3	0.046750735
183	0x3d5e6df4	0.05430408
184	0xbd8aab9c	-0.06771013
185	0x3d4417c4	0.047874227
186	0x3ccd5d7f	0.025068996
187	0x3d6916a6	0.056906365
188	0xbce74bd3	-0.028234398
189	0xbd00f2a7	-0.03148141
190	0x3d388037	0.04504415
191	0xbd81acfb	-0.063318215
192	0x3d89b4b0	0.067239165
193	0xbd519032	-0.051162906
194	0x3d524ced	0.051342893
195	0xbdf739d1	-0.120715745
196	0x3ce6074e	0.028079655
197	0xbd8509d9	-0.06496019
198	0xbcce7fe0	-0.02520746
199	0x3d8180a2	0.06323363
200	0xbdebce7f	-0.115139954
201	0xbe0b5167	-0.13605271
202	0x3e64c347	0.22340117
203	0x3e0a56b5	0.13509639
204	0x3da62f5c	0.08114502
205	0x3da30e08	0.079616606
206	0x3d03b12d	0.03215139
207	0x3d4a8c62	0.049450286
208	0xbd57115d	-0.052506793
209	0xbd7c0743	-0.061530363
210	0xbba7ae9a	-0.0051172497
211	0xbc93ba9d	-0.01803332
212	0xbd8f4fea	-0.06997664
213	0x3d9c5e2d	0.0763515
214	0xbd9a6751	-0.07539237
215	0x3bffa935	0.0078021535
216	0x3d6fd7e8	0.058555514
217	0x3cfc4d31	0.030798526
218	0xbd404eb3	-0.046950053
219	0x3e3e2a3d	0.185708
220	0xbd504e21	-0.05085576
221	0x3daa5112	0.08316244
222	0xbdb7e598	-0.089793384
223	0x3de2dbc1	0.11077071
224	0xbcd6c7cc	-0.026218317
225	0x3d2b8880	0.041878223
226	0xbd2d0baa	-0.04224745
227	0xbd8d95dd	-0.0691335
228	0xbca1802e	-0.019714441
229	0x3d468817	0.04846963
230	0xbc0fba33	-0.008772421
231	0xbda070b5	-0.07833997
232	0xbdf105bb	-0.11768671
233	0xbc0422d7	-0.008064947
234	0x3d26f010	0.040756285
235	0xbd3f1ad3	-0.04665644
236	0xbccda313	-0.025102174
237	0xbc5c3331	-0.013439939
238	0xbe2aafbf	-0.16668604
239	0x3d243504	0.040089622
240	0x3d67c45e	0.056583755
241	0xbdb2003b	-0.0869145
242	0x3cd0369e	0.025416669
243	0x3dffbea2	0.12487532
244	0x3e07fd12	0.13280132
245	0xbd0d9c54	-0.034572914
246	0xbcc6b5e0	-0.024256647
247	0xbd7cc60a	-0.061712302
248	0x3c29edb6	0.010371616
249	0x3d8426ad	0.06452689
250	0xbd18a6ff	-0.037268635
251	0xbde27685	-0.11057762
252	0x3c3a15a7	0.011357701
253	0xbd08ff40	-0.03344655
254	0xbd5163de	-0.05112063
255	0xbccfbc75	-0.025358418

blocks.0.xlstm.q_proj.weight f4 [64, 2, 2]
0	0x3e107655	0.1410764
1	0x3d65382b	0.05596177
2	0xbc89368b	-0.01674964
3	0xbe48e2fe	-0.1961784
4	0xbb86e897	-0.0041170823
5	0x3d72fc5f	0.05932271
6	0xbddbffad	-0.10742126
7	0x3bc894f8	0.006121274
8	0xbdac51d1	-0.08414043
9	0xbe1c5983	-0.15268521
10	0x3cf28b41	0.029607417
11	0xbc80ed59	-0.015738176
12	0xbc56f7b0	-0.013120577
13	0x3cb74d94	0.02237586
14	0x3dbe9c3c	0.09307143
15	0xbdea6af0	-0.11446178
16	0xbe08298a	-0.13297096
17	0xbe0376b1	-0.12838246
18	0xbd185a40	-0.037195444
19	0xbe0062cb	-0.12537687
20	0x3da8d921	0.08244539
21	0xbe106235	-0.14099963
22	0xbbd445fa	-0.0064780684
23	0xbd376a94	-0.044779375
24	0x3c39166f	0.0112968525
25	0x3cf8cb14	0.030370273
26	0x3e09828d	0.13428707
27	0xbd9f3b27	-0.07774954
28	0x3d89b356	0.06723659
29	0x3cf1bd06	0.029509079
30	0x3e18bffd	0.14916988
31	0xbca15d03	-0.019697672
32	0xbd875f0f	-0.06609928
33	0x3d7967b3	0.06088991
34	0xbdfd7862	-0.12376477
35	0xbe2bab00	-0.1676445
36	0xbdd7c7da	-0.105361655
37	0x3d19a358	0.037509292
38	0x3da6fe28	0.08153945
39	0x3caaa645	0.020831237
40	0x3d1a2a2f	0.037637886
41	0x3e6dadc1	0.23210813
42	0x3c2217c5	0.009893362
43	0xbe8efa77	-0.27925465
44	0x3d4a4053	0.04937775
45	0xbd47a835	-0.0487444
46	0x3e56ea97	0.20987926
47	0xbd33b943	-0.04387785
48	0x3c7f1025	0.015567814
49	0xbe153337	-0.14570318
50	0x3bc0a73c	0.005879311
51	0x3d2c3a82	0.042047985
52	0x3cbf14eb	0.023325404
53	0xbe071d3b	-0.13194744
54	0xbd0238d1	-0.031792466
55	0x3b04fc09	0.0020291826
56	0x3d7ec522	0.06219972
57	0x3c93cde3	0.01804251
58	0x3c7aad76	0.015300145
59	0xbd466d48	-0.048444062
60	0xbd8c05e0	-0.06837058
61	0x3dfa89ee	0.12233339
62	0xbd60a3a3	-0.054843556
63	0x3ddafc12	0.1069261
64	0xbdac2afb	-0.084066354
65	0x3e21166e	0.15731212
66	0x3df2d915	0.11857811
67	0xbd9f9e3d	-0.077938534
68	0xbdd4dba4	-0.103934556
69	0x3d19477c	0.03742169
70	0xba89a13e	-0.0010500324
71	0xbd5c688d	-0.053810645
72	0xbcea3698	-0.028590485
73	0xbd6f3aa3	-0.05840553
74	0xba2fc643	-0.00067052635
75	0xbc3e5c79	-0.011618727
76	0x3d99a552	0.075022355
77	0xbc6bcaae	-0.014391584
78	0x3c4f674e	0.012658907
79	0x3cf12c29	0.029440003
80	0x3d542498	0.05179271
81	0xbcd4fdab	-0.025999865
82	0x3cdd1790	0.026988775
83	0xbe0f0ec9	-0.13970484
84	0x3e105bf5	0.14097579
85	0xbda28fe2	-0.079376
86	0x3c8d3afc	0.01724004
87	0xbd056da1	-0.032575253
88	0x3b898829	0.0041971398
89	0x3c902eb9	0.017600404
90	0x3d8044d6	0.062631294
91	0xbcd32286	-0.025773298
92	0xbc29c668	-0.010362245
93	0x3de102cb	0.10986861
94	0xbd41165b	-0.04714046
95	0xbc1153ec	-0.008870106
96	0xbd961f87	-0.07330232
97	0x3b2e5a00	0.0026603937
98	0x3be9f53b	0.0071398295
99	0xbd1e0762	-0.03858126
100	0xbbc2b466	-0.0059419153
101	0x3c9db2cf	0.019250302
102	0xbe34a97c	-0.17642778
103	0x3d90ad61	0.070643194
104	0xbde8c7ff	-0.11366271
105	0x3db6a4f6	0.089181826
106	0xbdbed48c	-0.09317884
107	0xbe0d35c1	-0.13790037
108	0x3d2ee40b	0.042697947
109	0xbd47a830	-0.04874438
110	0xbd3ec279	-0.046572182
111	0x3d9bea26	0.0761302
112	0xbdd78fcd	-0.10525475
113	0x3e1898c5	0.14902027
114	0x3de1058f	0.10987388
115	0x3cad2072	0.021133635
116	0x3ce2d815	0.027690927
117	0x3c009e85	0.007850294
118	0xbd168ac5	-0.036753435
119	0x3c0ce745	0.008600061
120	0x3c3919cc	0.011297654
121	0xbdca74b6	-0.09885542
122	0xbd42f6bf	-0.047598597
123	0xbd3e7f8f	-0.046508368
124	0x3cfecc57	0.031103296
125	0xbc767e73	-0.015044796
126	0xbd0ff520	-0.03514588
127	0x3a9a5fab	0.0011777779
128	0xbda23e80	-0.07922077
129	0x3c7711ac	0.015079897
130	0xbe53f6e3	-0.20699649
131	0xbd0adabf	-0.03390002
132	0xbd5f6d5b	-0.05454765
133	0xbd62bfd0	-0.055358708
134	0xbc5e32f4	-0.013561953
135	0x3da8c88e	0.08241378
136	0x3d02c50c	0.0319262
137	0xbd5e3b26	-0.054255627
138	0xbe3328cc	-0.17496032
139	0xbd57bd7f	-0.052670952
140	0xbe0b2f30	-0.1359222
141	0x3da35f30	0.0797714
142	0x3bafe6f9	0.0053681103
143	0xbd320f82	-0.04347182
144	0x3d22914a	0.03968934
145	0xbd3e493b	-0.046456557
146	0xbdc5f030	-0.09664953
147	0x3c0e2471	0.0086756805
148	0xbe2df8fe	-0.16989514
149	0xbd378132	-0.044800945
150	0x3d9875fe	0.0744438
151	0xbd7a2147	-0.061066892
152	0x3d80c6ed	0.06287942
153	0xbb843d72	-0.004035645
154	0x3e0cee91	0.13762881
155	0x3d8d6e67	0.06905823
156	0x3d1390de	0.036026828
157	0xbce828a7	-0.028339697
158	0x3cf69a70	0.030102938
159	0xbda3cdae	-0.07998215
160	0x3e5b315d	0.2140555
161	0xbde8e35c	-0.1137149
162	0x3c6d805b	0.014495934
163	0xbe0a3487	-0.134966
164	0xbd37009f	-0.044678327
165	0x3d82b897	0.06382864
166	0xbd6eae96	-0.058271967
167	0xbd8a62dc	-0.06757137
168	0x3ba157e2	0.0049238065
169	0xbbd70c10	-0.0065627173
170	0x3d3122f9	0.043246243
171	0xbe449d13	-0.19200544
172	0xbd1b15b9	-0.037862513
173	0xbd24dfd9	-0.04025254
174	0xbbdd19b9	-0.006747451
175	0xbdf31a13	-0.11870208
176	0x3cdbb3b9	0.026819097
177	0xbc6cb7da	-0.0144481305
178	0xbd142d91	-0.036176268
179	0xbe095f64	-0.13415295
180	0xbc945ebd	-0.018111581
181	0xbda20aa5	-0.079121865
182	0x3caa3d78	0.020781264
183	0x3cfa05b8	0.030520305
184	0x3d9c8306	0.07642178
185	0xbd896818	-0.067093074
186	0xbe29ad9c	-0.16570133
187	0xbcf6f7fa	-0.030147541
188	0x3cdd118e	0.02698591
189	0xbd0dacad	-0.034588505
190	0xbdbf872e	-0.09351955
191	0xbd26fc32	-0.040767856
192	0x3d096464	0.033543006
193	0xbe09bc28	-0.13450682
194	0x3cefaf43	0.029258376
195	0xbc00802a	-0.007843057
196	0xbd458cd5	-0.04823001
197	0xbba9e1b7	-0.005184378
198	0xbd407875	-0.046989877
199	0x3da40079	0.08007903
200	0x3da55e33	0.08074608
201	0x3e037a33	0.12839584
202	0xbdc5c3df	-0.096565
203	0xbcc491f8	-0.023995385
204	0x3d2fc949	0.04291657
205	0xbdccc903	-0.099992774
206	0xbd52196b	-0.05129377
207	0x3d4390a4	0.047745362
208	0xbce18801	-0.027530672
209	0x3b85e19d	0.004085733
210	0x3dc4ab8b	0.09603032
211	0x3d27332d	0.04082029
212	0x3d4ad207	0.049516704
213	0xbdec9d55	-0.11553446
214	0xbe25bcbe	-0.1618528
215	0xbc3d8912	-0.011568325
216	0xbbdacfb8	-0.006677594
217	0x3d9996da	0.07499476
218	0x3d95615d	0.07293961
219	0xbc1b18dc	-0.009466376
220	0x3da32c8e	0.079674825
221	0xbcde9925	-0.027172634
222	0x3d452dff	0.04813957
223	0x3b3cb486	0.0028794124
224	0x3d965582	0.07340528
225	0x3deb2943	0.114824794
226	0x3db8d4bb	0.0902495
227	0x3ce69e63	0.028151697
228	0xbd87bf91	-0.06628335
229	0xbd5d9d0c	-0.05410485
230	0xbe328fbe	-0.17437646
231	0x3d992685	0.0747805
232	0x3daf6e94	0.08566013
233	0xbbcd9ee9	-0.006275047
234	0x3a15302d	0.00056910777
235	0xbd339fa4	-0.043853417
236	0xbdaf8a7c	-0.08571336
237	0xbca66c0e	-0.020315196
238	0x3cc0ce10	0.023535758
239	0x3de9c2b5	0.114140905
240	0xbd289af5	-0.041163404
241	0x3dd05b47	0.1017366
242	0xbcce4998	-0.025181577
243	0xbe1c6d52	-0.15276077
244	0x3d9e5ce1	0.07732559
245	0x3c2d2b47	0.0105694
246	0x3c9697ae	0.018382873
247	0x3dcd153a	0.10013814
248	0xbce208aa	-0.027592022
249	0x3e4ec1a4	0.20191056
250	0xbd280267	-0.041017916
251	0xbd898862	-0.06715466
252	0x3dab6adb	0.083699904
253	0x3e0eb4e7	0.13936196
254	0xbd0254a2	-0.031818993
255	0x3db6d381	0.0892706

blocks.0.xlstm.k_proj.weight f4 [64, 2, 2]
0	0x3e1c1968	0.15244067
1	0x3dbcbafb	0.09215351
2	0xbe204014	-0.15649444
3	0xbd9df68e	-0.07713042
4	0x3d3bc746	0.04584434
5	0x3ce811d3	0.028328812
6	0xbb6014a9	-0.0034192002
7	0xbd8418e6	-0.064500615
8	0x3de63e5e	0.11242364
9	0xbdc78acd	-0.09743271
10	0x3d740ef7	0.059584584
11	0x3d659324	0.056048527
12	0x3cc99ccd	0.024610901
13	0xbcfa5733	-0.030559158
14	0xbcf93150	-0.030419022
15	0xbd007742	-0.031363733
16	0x3d9d3722	0.076765314
17	0x3e1f5c28	0.15562499
18	0xbda61baa	-0.08110745
19	0x3d059f77	0.03262278
20	0x3d9232b1	0.07138575
21	0x3d162402	0.036655433
22	0x3d40c399	0.047061536
23	0xbdf53109	-0.11972243
24	0x3c520411	0.012818352
25	0x3de6dce9	0.11272604
26	0xbc984ed7	-0.018592281
27	0xbd9692aa	-0.07352193
28	0xbe09d923	-0.13461737
29	0xbcbf8139	-0.023377048
30	0x3dad445e	0.08460306
31	0xbc5c1672	-0.013433086
32	0xbd8b4697	-0.06800573
33	0x3dc5174b	0.096235834
34	0x3c3835a9	0.011243262
35	0x3c94664b	0.018115183
36	0x3b31b3a2	0.0027115126
37	0x3d696a43	0.056986105
38	0xbcda906b	-0.026680192
39	0xbc618a9a	-0.013765955
40	0xbdbfb8d1	-0.09361423
41	0xbcc02fea	-0.023460347
42	0x3e32520d	0.17414112
43	0x3be419e8	0.006961096
44	0xbb55ceea	-0.003262455
45	0x3d58902f	0.05287188
46	0xbe259e54	-0.16173679
47	0x3e0048b0	0.12527728
48	0xbd9e351d	-0.07724974
49	0xbd153c25	-0.03643431
50	0x3d37dcfa	0.044888474
51	0x3c10eddc	0.008845773
52	0xbd897cfa	-0.067132905
53	0xbcead6d7	-0.028666897
54	0x3a809fd1	0.0009813254
55	0xbd261236	-0.04054471
56	0x3dd7adcc	0.10531196
57	0xbd56f9a8	-0.052484185
58	0xbca9daee	-0.020734277
59	0xbd4cc15d	-0.049989093
60	0x3dac5d39	0.08416218
61	0xbd2f8740	-0.042853594
62	0x3d04f4e5	0.032460112
63	0xbd52881e	-0.051399343
64	0x3e02b12a	0.12762895
65	0xba94879c	-0.0011331919
66	0x3b8cc859	0.0042963442
67	0xbd19e88f	-0.0375753
68	0xbdbab242	-0.09116031
69	0xbc827d64	-0.015928932
70	0x3da794d1	0.08182681
71	0x3d8d6920	0.06904817
72	0xbc22569e	-0.009908346
73	0xbc6c7e1d	-0.014434365
74	0x3dbff3d7	0.09372681
75	0x3d92628b	0.07147702
76	0xbdb7f4c5	-0.08982233
77	0xba355ff2	-0.0006918899
78	0xbd89cefd	-0.06728933
79	0xbd16f450	-0.03685409
80	0x3ba6cf3f	0.0050906236
81	0x386595d0	5.473738e-05
82	0x3e8f8559	0.28031424
83	0xbcfc9ee7	-0.03083749
84	0x3d021a5c	0.03176342
85	0xbd9b8a3d	-0.07594726
86	0xbb233d33	-0.0024908304
87	0x3de85f06	0.11346249
88	0x3dd10088	0.102051795
89	0xbbb17bd6	-0.0054163737
90	0xbe10e24d	-0.14148827
91	0xbd515a4b	-0.0511115
92	0x3d92bc7e	0.07164858
93	0x3dfe3b68	0.124136746
94	0xbd326d71	-0.043561403
95	0xbc6034da	-0.013684476
96	0x3b5cebdc	0.003370992
97	0xbda1d472	-0.07901849
98	0xbc9c84db	-0.01910632
99	0x3cf15ed7	0.029464168
100	0xbe07096d	-0.1318719
101	0x3e428b99	0.18998565
102	0xbcfded7d	-0.030997032
103	0xbd6cbb0e	-0.057795577
104	0xbd8431ec	-0.06454834
105	0xbe62f37a	-0.22163191
106	0xbdbaf058	-0.09127873
107	0xbdc809de	-0.09767507
108	0xbe1950ee	-0.14972278
109	0xbddf8b3f	-0.10915231
110	0xbe2409b2	-0.16019323
111	0xbd3981f1	-0.045289937
112	0xbd2134b7	-0.039356913
113	0x3bf9cf1b	0.007623566
114	0x3df6bd54	0.1204783
115	0xbe2bc81b	-0.16775553
116	0xbcc3497c	-0.023838751
117	0xbd93e5a8	-0.07221538
118	0xbdaa364d	-0.08311138
119	0x3ceee169	0.029160218
120	0xbc363cf5	-0.011122932
121	0x3d2c65e6	0.042089365
122	0x3dc95078	0.09829801
123	0x3e313473	0.17305164
124	0xbdf48067	-0.11938553
125	0xbcdcca66	-0.02695198
126	0xbbe2bbe2	-0.00691937
127	0xbd3aaf1c	-0.045577154
128	0xbddfbedc	-0.109250754
129	0x3c71e4c0	0.014764011
130	0xbe2cfccb	-0.16893308
131	0x3e34cf05	0.17657097
132	0xbcfa38be	-0.030544635
133	0x3d0b352c	0.033986256
134	0x3c5c388d	0.013441217
135	0x3d2a0c1d	0.04151546
136	0xbcf5671c	-0.029956393
137	0x3db5318e	0.088473424
138	0x3ab7dc62	0.0014027471
139	0x3d4f356f	0.050588068
140	0xbc7834ac	-0.015149277
141	0x3ddd9599	0.10819549
142	0xbc9359a0	-0.017987072
143	0xbda42082	-0.08014013
144	0xbcd33b87	-0.02578522
145	0x3cc022a1	0.023454012
146	0xbc010039	-0.007873588
147	0x3c228aed	0.009920818
148	0x3d85823d	0.065189816
149	0x3c751e58	0.014960848
150	0xbcbdfe8e	-0.02319267
151	0xbdbe94ed	-0.09305749
152	0x3e522ea1	0.205256
153	0xbd4e3796	-0.05034598
154	0xbdafce43	-0.08584263
155	0xbdc23c39	-0.09484143
156	0xbd6dd19b	-0.058061223
157	0xbcfcd23e	-0.03086197
158	0xbd214778	-0.0393748
159	0x3cb245bd	0.02176177
160	0xbdef031d	-0.11670516
161	0xbb8e741d	-0.004347338
162	0x3e1bc150	0.15210462
163	0x3e072c30	0.1320045
164	0x3d2a3932	0.041558452
165	0xbc25b0a2	-0.010112913
166	0xbb860ef8	-0.00409114
167	0xbdabb806	-0.08384709
168	0x3cfe2fed	0.031028712
169	0xbd0c065b	-0.03418575
170	0x3d5ddbc8	0.054164678
171	0xbd11f665	-0.03563537
172	0x3db723eb	0.08942398
173	0x3d5c4ccc	0.053784177
174	0x3db35cad	0.08757911
175	0x3dd29e90	0.1028415
176	0x3d8d6e44	0.06905797
177	0x3ddaeef5	0.10690109
178	0xbd88461f	-0.066539995
179	0xbd48fc7a	-0.049068905
180	0xbb872a8c	-0.004124945
181	0xbdc0bf6a	-0.09411509
182	0xbd56af55	-0.052413303
183	0xbe2d92b4	-0.16950494
184	0xbd7191f3	-0.05897708
185	0x3d76a7a5	0.060218472
186	0xbdace2ae	-0.08441673
187	0xbab505fb	-0.0013810986
188	0x3d3fe783	0.046851646
189	0x3d40b91f	0.047051545
190	0x3df651b3	0.12027302
191	0xbdbad7fa	-0.091232255
192	0x3d9249bc	0.0714297
193	0xbd74265f	-0.059606906
194	0xbd0d1397	-0.03444251
195	0xbd65097f	-0.05591726
196	0x3d7eb2a3	0.06218208
197	0xbdfdce3a	-0.1239285
198	0xbc04aa33	-0.008097219
199	0xbd93679b	-0.071974955
200	0x3d2bc25b	0.0419334
201	0xbd989f0f	-0.07452213
202	0xbdc1847d	-0.09449098
203	0x3bc85859	0.0061140475
204	0x3e0a0e98	0.1348213
205	0xbd097224	-0.03355612
206	0x3b74a2d0	0.003732849
207	0xbcd162bc	-0.025559776
208	0x3e119739	0.14217843
209	0xbd641894	-0.055687502
210	0x3e1c25e5	0.1524883
211	0xbd8a64c4	-0.06757501
212	0x3e27a685	0.16372116
213	0xbcec61f4	-0.028855301
214	0x3d2effff	0.042724606
215	0xbd99b946	-0.07506041
216	0x3d652ab2	0.05594892
217	0x3d143c68	0.03619042
218	0xbd7b7232	-0.061388202
219	0x3c23b294	0.009991307
220	0xbd479d48	-0.04873398
221	0x3c22a8ff	0.009927987
222	0xbda578d1	-0.080796845
223	0x3dba4a1d	0.09096167
224	0xbb02f6a3	-0.0019983433
225	0xbdae181c	-0.08500692
226	0xbe162c66	-0.14665374
227	0x3d08084a	0.03321103
228	0x3d0ed0be	0.03486704
229	0x3e06668c	0.13125056
230	0x3e24e5a6	0.16103229
231	0x3c7b1091	0.015323774
232	0x3e0f1e75	0.13976462
233	0x3d82f942	0.063951984
234	0x3d8c7b22	0.06859423
235	0x3d27a607	0.04092982
236	0x3d14319e	0.03618013
237	0x3d83baac	0.06432089
238	0x3d5e3278	0.05424735
239	0xbd9e611a	-0.077333644
240	0xbe1c949c	-0.15291065
241	0x3bba4d82	0.005685509
242	0xbc4826bd	-0.012216267
243	0x3db82c8f	0.08992874
244	0xbd8952ea	-0.06705268
245	0x3dc22c8f	0.09481155
246	0x3e04c9de	0.12967631
247	0xbdb45680	-0.08805561
248	0x3d888ae4	0.06667116
249	0xbdb76e5a	-0.08956595
250	0x3e03284a	0.12808338
251	0x3d2c10ee	0.042008333
252	0xbd9433c7	-0.07236438
253	0xbdcecf1c	-0.10098097
254	0x3da6a9b9	0.08137841
255	0xbde68ea7	-0.112576775

blocks.0.xlstm.v_proj.weight f4 [64, 2, 2]
0	0xbd88379b	-0.06651231
1	0xbe2ba233	-0.16761093
2	0x3e3e15ce	0.18563005
3	0x3d81bac1	0.063344486
4	0x3d83462d	0.06409869
5	0x3e2f7b71	0.17136933
6	0xbd425781	-0.04744673
7	0xbd88d320	-0.06680894
8	0xbde79d19	-0.11309261
9	0x3dc649a0	0.096820116
10	0xbdfb61b7	-0.12274497
11	0x3d2c0cbe	0.04200434
12	0x3d9b4b95	0.075827755
13	0xbbcaab24	-0.0061849523
14	0x3e6589d4	0.22415859
15	0x3db7470e	0.089490995
16	0x3abdcf79	0.0014481387
17	0x3d368a91	0.04456574
18	0xbdda1034	-0.10647622
19	0xbe049e4b	-0.12951009
20	0xbda71204	-0.08157733
21	0xbdb35415	-0.08756272
22	0x3d5f4811	0.054512087
23	0xbdbad918	-0.091234386
24	0x3d9b6a78	0.07588667
25	0xbd80b77b	-0.06284996
26	0xbe048a92	-0.12943485
27	0xbc9e373e	-0.01931345
28	0xbcd5059c	-0.026003651
29	0xbb245ed0	-0.0025080927
30	0xbd99a340	-0.075018406
31	0xbdbc4fdb	-0.09194919
32	0x3d6700df	0.056397315
33	0xbd102ed8	-0.035200924
34	0xbd7b3173	-0.061326455
35	0xbd13afab	-0.036056202
36	0x3d1a2d3a	0.037640788
37	0x3cd8a58d	0.026446128
38	0x3cffc077	0.031219704
39	0x3cc20634	0.023684599
40	0xbcd6fc2a	-0.026243288
41	0x3d7da077	0.06192061
42	0x3d7522f4	0.059847787
43	0xbdd582a5	-0.10425309
44	0xbd44afd2	-0.048019238
45	0x3e2dab34	0.1695984
46	0x3cad956b	0.021189412
47	0xbd348218	-0.04406938
48	0x3c972211	0.018448861
49	0x3b57acdd	0.003290943
50	0xbd85add7	-0.06527298
51	0xbe639e0b	-0.22228257
52	0xbd4aea5e	-0.049539916
53	0xbb93f419	-0.0045151827
54	0xbc669ca2	-0.01407543
55	0x3aea8e74	0.0017895238
56	0x3a8a3c19	0.0010546475
57	0x3d7d138f	0.06178623
58	0xbb826bf6	-0.003980155
59	0x3c6ffc08	0.014647491
60	0xbcfd0692	-0.030886922
61	0xbd339bc6	-0.04384973
62	0x3d8fd095	0.07022206
63	0x3d1393fb	0.036029797
64	0x3d771a08	0.06032756
65	0x3d88ec20	0.06685662
66	0xbd086543	-0.033299696
67	0xbe1cf875	-0.15329154
68	0xbba85f33	-0.0051383018
69	0xbdb96dac	-0.090541214
70	0x3dca21dc	0.098697394
71	0x3d371dd8	0.044706196
72	0x3dc0244f	0.09381925
73	0xbc91e222	-0.017808024
74	0xbdc7a176	-0.09747593
75	0x3c19b84b	0.009382318
76	0x3d295763	0.041343104
77	0xbb363eab	-0.002780835
78	0x3df7bf03	0.120969795
79	0xbe3e49b9	-0.1858281
80	0xbdf0f15b	-0.11764785
81	0x3c85f0d9	0.016350197
82	0x3cfe6403	0.031053549
83	0xbdcfabd3	-0.10140195
84	0x3cbf279f	0.023334322
85	0x3d586178	0.05282733
86	0xbe0d06e4	-0.1377216
87	0xbd658fbc	-0.05604528
88	0xbdf82d61	-0.1211803
89	0x3d131bc6	0.03591516
90	0xbd918fa2	-0.07107474
91	0xbdad8e36	-0.0847439
92	0x3da2822c	0.079349846
93	0xbe059848	-0.13046372
94	0x3d186187	0.037202384
95	0xbe09c4a7	-0.13453923
96	0xbce8a280	-0.028397799
97	0xbda73d57	-0.081659965
98	0x3dfcce19	0.123439975
99	0x3bacaeb3	0.005269849
100	0xbd42bf9f	-0.047546025
101	0xbd3632ea	-0.04448215
102	0xbd80ec6d	-0.06295095
103	0xbd8adfdc	-0.06780979
104	0x3db8c016	0.090210125
105	0xbc4bc937	-0.01243811
106	0x3c49fedd	0.012328831
107	0xbc89a340	-0.016801476
108	0x3d8bf4bb	0.06833788
109	0xbd1d6903	-0.038430225
110	0xbcc87bee	-0.024473157
111	0xbcad4e8f	-0.021155624
112	0x3d209374	0.039203122
113	0xbd7428c4	-0.05960919
114	0x3cedb709	0.029017942
115	0xbc1ac7a0	-0.009447008
116	0xbd98d8bb	-0.07463213
117	0xbdba71d9	-0.09103746
118	0xbd9103f7	-0.07080834
119	0xbd1a8593	-0.037725043
120	0xbc00ad63	-0.007853839
121	0xbdf2caa5	-0.118550576
122	0x3d803f5b	0.06262084
123	0xba5e1409	-0.00084716134
124	0x3d1b25a0	0.03787768
125	0xbd25fe55	-0.040525753
126	0x3d9c2429	0.076240845
127	0xbd1c8410	-0.038211882
128	0xbd530774	-0.05152078
129	0x3dd1bc29	0.10240967
130	0xbda0a2ca	-0.078435495
131	0x3d9149cd	0.070941545
132	0x3d3729c3	0.04471756
133	0xbc85401f	-0.016265927
134	0xbd01e2ec	-0.03171055
135	0x3d3361ae	0.043794326
136	0xbc646cf3	-0.013941991
137	0x3cacc83b	0.021091571
138	0xbd2f6fd4	-0.042831257
139	0xbb04ae6b	-0.0020245563
140	0xbd8bc88c	-0.06825361
141	0xbe116edd	-0.14202447
142	0xbbec7efd	-0.0072172866
143	0x3d173295	0.036913473
144	0xbd5ad979	-0.053430054
145	0xbda336cf	-0.07969438
146	0x3c51094b	0.012758563
147	0xbdf36a7f	-0.11885547
148	0xbd85b841	-0.06529284
149	0x3d97b23b	0.07407042
150	0x3af19a39	0.0018432803
151	0x3de0365e	0.1094787
152	0x3de1ec1a	0.11031361
153	0xbde3f068	-0.11129838
154	0xbcd3bdfa	-0.025847424
155	0xbcf48ba9	-0.029851751
156	0xbcba3756	-0.022731464
157	0xbda2af26	-0.07943563
158	0x3c481bce	0.01221366
159	0xbd8009fd	-0.06251905
160	0x3a8d1d9b	0.0010766269
161	0xbd1368d8	-0.03598866
162	0x3cb492c2	0.022042636
163	0xbd4f6777	-0.05063578
164	0x3d25b898	0.040459245
165	0x3d9e9969	0.077441044
166	0xbd91891f	-0.07106232
167	0x3d621259	0.05519328
168	0x3d44e735	0.04807206
169	0xbd3c415e	-0.045960777
170	0x3c73d1f9	0.014881604
171	0x3d3e350d	0.046437312
172	0xbdc04611	-0.09388364
173	0x3db8369e	0.089947924
174	0xbc184c7a	-0.009295577
175	0x3d601939	0.054711554
176	0x3d58957b	0.05287693
177	0x3ddd6fbb	0.108123265
178	0xbc4e635d	-0.012596932
179	0x3e3d17ea	0.18466154
180	0x3e15a214	0.14612609
181	0x3b64ead7	0.0034930015
182	0x3dc2898f	0.094988935
183	0x3d8257ec	0.06364426
184	0x3dc01ffb	0.093811
185	0xbcfb7097	-0.030693335
186	0x3d1bfc6f	0.038082536
187	0x3cb2fb87	0.021848453
188	0xbc9e6d47	-0.019339217
189	0xbd174cc9	-0.036938462
190	0x3d5a4d6e	0.0532965
191	0xbb60d4ab	-0.0034306447
192	0xbd6bf5de	-0.057607524
193	0xbd380d76	-0.044934712
194	0xbc90bce8	-0.017668203
195	0xbdad5410	-0.08463299
196	0xbd7c7974	-0.061639264
197	0x3db00729	0.08595116
198	0xbd44a0c4	-0.04800488
199	0xbdc7f29d	-0.09763072
200	0xbc82a66a	-0.015948493
201	0xbd1bfc24	-0.038082257
202	0xbd4f275e	-0.050574653
203	0xbdbfd65a	-0.09367056
204	0xbd8b2305	-0.06793789
205	0xbd8145c6	-0.06312136
206	0xbd764c38	-0.06013128
207	0xbdbab259	-0.09116048
208	0x3d2c9463	0.0421337
209	0x3aaa24dd	0.0012980957
210	0x3d9ab42e	0.07553898
211	0xbc390423	-0.01129249
212	0xbd2c6cff	-0.042096134
213	0xbcf753e6	-0.030191373
214	0xbbd5aeca	-0.0065210806
215	0xbdb568fa	-0.08857913
216	0x39672231	0.00022042614
217	0x3d49b2db	0.049242835
218	0xbd9a1ac8	-0.07524639
219	0x3c9a8dd9	0.018866466
220	0x3e1a6fd0	0.15081716
221	0xbd26cbd1	-0.04072172
222	0x3cebdd86	0.028792154
223	0xbe0628e6	-0.13101539
224	0x3be6196b	0.007022073
225	0x3d2ebf02	0.042662628
226	0x3b7cdcde	0.0038583796
227	0xbd906425	-0.07050351
228	0xbd6e2734	-0.058142856
229	0xbc7d232d	-0.015450281
230	0x3dab1dfc	0.083553284
231	0xbdc2ba68	-0.095082104
232	0xbd1eeb57	-0.038798656
233	0xbd27eb60	-0.040995955
234	0x3dfcb1a6	0.12338571
235	0x3e472dae	0.19451019
236	0xbd534982	-0.051583774
237	0x3e443014	0.19158965
238	0xbdcee606	-0.10102467
239	0x3c263d50	0.010146454
240	0x3df94318	0.12171
241	0x3e05047b	0.1298999
242	0xbb505b0b	-0.0031792547
243	0xbc843f6f	-0.016143529
244	0x3d27df6a	0.04098455
245	0x3dba65c4	0.091014415
246	0x3d33f353	0.043933224
247	0x3c893ebb	0.016753545
248	0xbdc28b90	-0.09499276
249	0xbc9c905f	-0.01911181
250	0xbb1aceb7	-0.0023621747
251	0xbdad118a	-0.08450611
252	0x3c1fccd4	0.009753425
253	0x3dfd53c0	0.1236949
254	0x3da78b1f	0.08180832
255	0xbc909504	-0.017649181

blocks.0.xlstm.conv1d.conv.weight f4 [128, 1, 4]
0	0x3e97b6a0	0.2963152
1	0x3ee1ddd1	0.44114545
2	0xbe95e18f	-0.2927365
3	0xbdabc6b8	-0.08387512
4	0x3e2dbccb	0.1696655
5	0x3cf02f62	0.029319469
6	0x3d2542af	0.040346798
7	0xbe9eaa8a	-0.30989486
8	0xbe9e70d9	-0.3094547
9	0xbeed73d7	-0.4637744
10	0x3e4334b5	0.19063075
11	0x3e743196	0.2384704
12	0xbe91d72c	-0.28484476
13	0xbe226247	-0.15857802
14	0x3d1562fd	0.036471356
15	0x3d87a9b2	0.06624164
16	0xbede7e89	-0.43455914
17	0xbef10a14	-0.47078001
18	0xbe31e897	-0.17373882
19	0xbe9f352b	-0.3109525
20	0xbe5861ce	-0.2113106
21	0x3e1def9b	0.15423433
22	0xbe1aa02c	-0.15100163
23	0x3e84f375	0.25966993
24	0x3dbca3fe	0.092109665
25	0xbeedde7a	-0.464588
26	0xbeb9ef64	-0.36315453
27	0xbee0443c	-0.4380206
28	0xbe739a2a	-0.23789278
29	0x3eb8f026	0.3612072
30	0x3ea556df	0.3229284
31	0x3ef785be	0.48344225
32	0xbea449c5	-0.32087532
33	0xbea2db27	-0.31807825
34	0x3eadb14a	0.33924323
35	0x3e3d17e4	0.18466145
36	0x3e754508	0.23952115
37	0xbe437911	-0.19089152
38	0xbeaf1184	-0.3419305
39	0x3eca20af	0.3947806
40	0xbcf12314	-0.029435672
41	0x3eef27d6	0.4671008
42	0xbe95b6b6	-0.2924096
43	0x3ec78b79	0.38973597
44	0xbeab8059	-0.3349636
45	0xbc1f6dfc	-0.009730812
46	0xbdac55c1	-0.08414794
47	0xbe8f0872	-0.2793613
48	0xbecefc0d	-0.40426674
49	0xbefb7c1d	-0.49118128
50	0x3e1c067a	0.15236846
51	0xbd98adbc	-0.07455012
52	0x3edab535	0.42716375
53	0xbe61388a	-0.21994224
54	0xbe54d458	-0.20784128
55	0xbef5daca	-0.48018485
56	0xbee0ef7e	-0.43932718
57	0xbeef5c30	-0.4675002
58	0xbe91c08f	-0.28467223
59	0x3ef070ba	0.46961004
60	0x3e5f533e	0.21809098
61	0xbe8d0de7	-0.2754967
62	0xbe6a4998	-0.22879636
63	0xbed666d9	-0.41875342
64	0xbc0cfecc	-0.00860567
65	0x3ee05a93	0.43819103
66	0xbe983833	-0.29730377
67	0xbdd9e790	-0.1063987
68	0x3df121c6	0.1177402
69	0xbd0906c6	-0.033453725
70	0x3ef16642	0.4714833
71	0x3d0d4ab4	0.03449507
72	0xbed72241	-0.4201832
73	0x3e0fe987	0.14053927
74	0xbdcf7508	-0.10129744
75	0x3ec5ca47	0.38630888
76	0x3bc937cf	0.006140686
77	0xbd4b1c55	-0.049587566
78	0x3ecbb328	0.39785123
79	0x3e0043f2	0.12525919
80	0x3e24cf42	0.16094688
81	0xbecaf246	-0.39637965
82	0xbefa4e29	-0.48887756
83	0x3e42c42b	0.19020145
84	0xbec7316f	-0.38904902
85	0x3d76598f	0.060144003
86	0xbc6a146e	-0.014287097
87	0x3eaf20c8	0.34204698
88	0x3e211209	0.15729536
89	0xbe87200f	-0.26391646
90	0xbdaf65d5	-0.08564345
91	0x3e8134f6	0.25235718
92	0x3cc30542	0.023806218
93	0xbef39f70	-0.4758258
94	0xbe1034bc	-0.14082617
95	0xbe7f5356	-0.24934134
96	0x3e5ffc2c	0.2187354
97	0x3e9bab55	0.30404153
98	0xbe854b3f	-0.2603397
99	0xbccf8807	-0.025333418
100	0x3ecec71d	0.40386286
101	0xbdd7dceb	-0.10540184
102	0x3ed6f3a1	0.4198275
103	0x3e8d0621	0.27543738
104	0x3c4fec4f	0.012690618
105	0xbedcd473	-0.43130836
106	0xbed74e6d	-0.42052022
107	0x3e99e960	0.30060863
108	0xbe591d6c	-0.2120263
109	0x3ebbd04d	0.36682358
110	0xbec41781	-0.38299182
111	0x3c94529a	0.018105794
112	0x3ea5ff7b	0.3242148
113	0xbe71870f	-0.23586677
114	0x3efc0346	0.49221247
115	0xbdc56bdd	-0.09639714
116	0x3ee2c2bb	0.44289193
117	0x3e6c700e	0.2308962
118	0x3eb822d3	0.3596407
119	0x3ea429ac	0.32063043
120	0x3e404255	0.18775304
121	0x3e8e193c	0.27753627
122	0xbd1f49dc	-0.038888797
123	0xbed04f79	-0.40685633
124	0xbe9fb8c3	-0.3119565
125	0x3eaf1d17	0.3420188
126	0x3ba2b9d8	0.004966002
127	0xbd1630d1	-0.03666765
128	0x3ec69a68	0.38789678
129	0x3e4442dc	0.1916613
130	0xbdb4065b	-0.08790275
131	0x3e96d848	0.29461884
132	0xbe4b9410	-0.198807
133	0x3e85451e	0.26029295
134	0xbe1a44c8	-0.150653
135	0x3dff2328	0.124578774
136	0xbdbd8d15	-0.09255425
137	0x3dd8792b	0.10569986
138	0xbef10bc4	-0.4707929
139	0xbd41d174	-0.04731889
140	0xbcb12877	-0.02162574
141	0x3e700b2c	0.23441762
142	0x3edefc61	0.43551925
143	0x3e8ba8cd	0.27277222
144	0x3d36e975	0.044656236
145	0x3e1ecef7	0.15508638
146	0xbeb61e65	-0.35570064
147	0xbeae399a	-0.34028322
148	0x3e1db953	0.15402727
149	0xbe509fa2	-0.20373395
150	0x3d21ab4a	0.039469995
151	0x3e73cf8c	0.23809642
152	0xbed3a533	-0.41336975
153	0x3ef0bc4a	0.47018653
154	0xbe6303f5	-0.22169478
155	0x3eecc26d	0.46242085
156	0x3ebc692a	0.36798984
157	0xbd7f28dd	-0.06229483
158	0xbee382bb	-0.44435677
159	0xbee36d88	-0.44419503
160	0x3e40ea10	0.18839288
161	0x3de95a74	0.11394206
162	0xbef51a2c	-0.4787153
163	0xbe436760	-0.19082403
164	0xbc95f9b6	-0.018307548
165	0x3ef0e13b	0.47046837
166	0xbdb4457b	-0.08802315
167	0xbe42a75a	-0.19009152
168	0x3c63fac4	0.013914768
169	0xbeb48632	-0.35258633
170	0xbe3c165a	-0.18367901
171	0xbdbe5d82	-0.09295179
172	0x3edd09a3	0.43171415
173	0xbe1d21d1	-0.15344931
174	0x3d868a8a	0.06569393
175	0x3e9749d5	0.29548517
176	0x3e239a58	0.15976846
177	0xbeddc0b7	-0.43311092
178	0xbe16a9d1	-0.14713217
179	0xbeaecffa	-0.3414305
180	0xbe82e250	-0.25563288
181	0x3e8ceee5	0.27526012
182	0xbe4c25e0	-0.19936323
183	0xbea7fb74	-0.3280903
184	0x3e01ec94	0.12687904
185	0x3e925575	0.28580824
186	0xbeb3080b	-0.34967074
187	0xbbc2527f	-0.0059302445
188	0x3ea29833	0.31756744
189	0xbeb17bcc	-0.34664762
190	0xbde2e5cd	-0.11078987
191	0x3e2c1d4d	0.16808052
192	0x3ea0ddd9	0.31419256
193	0x3ec47db6	0.3837716
194	0xbe129719	-0.14315452
195	0xbf002e91	-0.50071055
196	0x3e9ac447	0.30227873
197	0xbeb0a346	-0.34499568
198	0xbee3e1f9	-0.4450834
199	0xbe5ad33d	-0.21369644
200	0x3e6f688b	0.23379724
201	0x3e02ff75	0.12792762
202	0xbb700963	-0.0036626689
203	0x3ea7b351	0.32753995
204	0x3e84ccc4	0.25937474
205	0x3eb36065	0.3503448
206	0x3eb7825f	0.35841653
207	0xbde7bf95	-0.11315838
208	0x3eab41d4	0.3344866
209	0x3e01f4aa	0.12690988
210	0x3e622893	0.2208579
211	0xbedd8b8e	-0.43270534
212	0xbd19ea38	-0.037576884
213	0xbd3ec6a3	-0.046576153
214	0xbe720578	-0.23634899
215	0x3ecd1389	0.40053967
216	0xbe17ca76	-0.14823326
217	0x3eb2b808	0.3490603
218	0x3e95007d	0.29101935
219	0xbe247471	-0.16060044
220	0x3efe3ec6	0.49657267
221	0xbeacfe82	-0.33787924
222	0xbe53a6e6	-0.20669135
223	0xbe0d99a9	-0.13828148
224	0xbe245e78	-0.16051662
225	0x3bc0136b	0.00586169
226	0x3eaccbf1	0.33749345
227	0xbe858d23	-0.2608424
228	0x3ee1bc03	0.44088754
229	0xbeff1f60	-0.49828625
230	0x39f458ee	0.00046605564
231	0x3e6718da	0.22568074
232	0xbeaa321b	-0.33241352
233	0xbbed4595	-0.007240961
234	0xbea5eecf	-0.3240876
235	0xbe87726a	-0.26454479
236	0x3d7680cc	0.060181424
237	0x3e21a4e7	0.15785562
238	0xbe3cf28d	-0.18451901
239	0x3edc24e6	0.429969
240	0x3e919e43	0.28441057
241	0xbed15626	-0.4088604
242	0x3eaebd62	0.34128863
243	0x3c07df80	0.008293033
244	0x3ee4636b	0.446071
245	0x3e7c2756	0.2462438
246	0xbdbf1370	-0.09329879
247	0xbe287850	-0.16452146
248	0x3ee24084	0.44189847
249	0x3e8dca96	0.27693623
250	0xbd83617c	-0.06415078
251	0xbea64b9e	-0.32479566
252	0x3b3f4d5d	0.00291904
253	0x3d84d991	0.0648681
254	0xbe0045e0	-0.12526655
255	0x3c02b36a	0.007977346

blocks.0.xlstm.conv1d.conv.bias f4 [128]
0	0xbec5a265	-0.3860046
1	0x3e7f9431	0.24958874
2	0x3e060df6	0.13091263
3	0x3ed2d4d5	0.41178003
4	0x3eef0da9	0.4669011
5	0xbd4664c4	-0.04843594
6	0xbe86a7c6	-0.26299876
7	0x3df89553	0.12137856
8	0x3d0c8e85	0.034315605
9	0x3e2d5ff2	0.16931131
10	0x3eb4ba07	0.35298178
11	0x3ea45fdf	0.32104394
12	0xbed8a6fb	-0.42314896
13	0xbd74f7df	-0.0598067
14	0xbdb7111c	-0.0893881
15	0xbe1b236e	-0.15150234
16	0x3edd8157	0.4326274
17	0x3ed8671b	0.42266163
18	0xbe9bed28	-0.30454373
19	0x3ea07aae	0.31343597
20	0xbe594eef	-0.21221517
21	0xbc5150d1	-0.012775616
22	0x3d032742	0.03201986
23	0x3d8d2a26	0.06892805
24	0x3e92f282	0.28700644
25	0xbb5ca851	-0.003366966
26	0xbef64660	-0.48100567
27	0xbd880394	-0.066413075
28	0x3e2e1101	0.16998674
29	0x3dd0ee37	0.10201686
30	0xbeb05c20	-0.34445286
31	0x3e46301a	0.19354287
32	0x3e27a8cd	0.16372986
33	0xbe1e9a4d	-0.15488549
34	0x3d005147	0.031327512
35	0x3e053236	0.13007435
36	0xbe611c34	-0.21983415
37	0xbea5efab	-0.32409415
38	0x3e9eee73	0.31041297
39	0xbddb9748	-0.10722214
40	0x3eac6cf7	0.33676884
41	0x3e9f3158	0.31092334
42	0x3ee1c1db	0.44093212
43	0xbee121d9	-0.43971136
44	0xbeaedf2e	-0.34154648
45	0x3e5e0b18	0.2168392
46	0xbee21be6	-0.4416191
47	0x3ec48f0f	0.38390395
48	0x3ddc8440	0.10767412
49	0xbdf7db32	-0.12102355
50	0xbeb8cdef	-0.36094615
51	0xbe972810	-0.29522753
52	0x3e8aa505	0.27079025
53	0x3e6cb7bd	0.23116966
54	0x3eddccac	0.43320215
55	0x3ebec009	0.37255886
56	0x3e7c1945	0.24619015
57	0xbec119c5	-0.37714973
58	0xbd52e48e	-0.051487498
59	0x3ea2e0b5	0.31812063
60	0xbef66213	-0.481217
61	0x3e0002ca	0.12501064
62	0xbd415969	-0.04720441
63	0x3ef8d100	0.48596954
64	0x3edea9fd	0.43489066
65	0x3ebae4ab	0.36502585
66	0xbedc9ac4	-0.43086827
67	0xbed0302c	-0.40661752
68	0xbe109412	-0.14118984
69	0xbefefa69	-0.49800423
70	0x3d5b1a3f	0.053491827
71	0xbe7ca2e9	-0.2467152
72	0xbe30fb95	-0.17283471
73	0xbe9018da	-0.2814396
74	0xbe1e2f13	-0.15447645
75	0x3e34669a	0.17617264
76	0x3e8ddf4e	0.2770943
77	0x3ed441ce	0.41456455
78	0x3ec71c95	0.38888994
79	0x3ec6bb34	0.388147
80	0xbed0f217	-0.408097
81	0xbea3c799	-0.31988218
82	0xbde8ed0a	-0.113733366
83	0xbe46bae7	-0.19407235
84	0x3ef4acdd	0.47788134
85	0xbe885191	-0.2662473
86	0xbea99ff2	-0.3312984
87	0xbc851510	-0.016245395
88	0x3ea79c35	0.32736364
89	0x3ec45a8a	0.38350326
90	0x3efb03e7	0.49026415
91	0x3e27f311	0.16401316
92	0xbd872b56	-0.066000625
93	0x3ea92632	0.33036953
94	0x3d429a4b	0.047510426
95	0x3dea3f48	0.11437851
96	0x3eb30881	0.34967425
97	0xbdfc4691	-0.12318147
98	0x3e867a94	0.26265395
99	0x3e8d8541	0.27640727
100	0x3e32de4e	0.17467615
101	0xbdbeaaaa	-0.09309895
102	0x3e749386	0.238844
103	0x3e7c94c2	0.24666122
104	0xbe249d89	-0.1607572
105	0xbdfda9f0	-0.12385929
106	0xbeb07769	-0.34466103
107	0x3d17ebed	0.03709023
108	0xbde98440	-0.11402178
109	0xbd869433	-0.065712355
110	0x3d46e467	0.048557665
111	0x3e1d5158	0.15363061
112	0x3ee13258	0.43983722
113	0x3e1a4b7a	0.15067855
114	0x3e6d344f	0.23164485
115	0x3e9e2fcc	0.3089584
116	0x3e63d5ca	0.22249523
117	0xbefbd168	-0.49183202
118	0x3ccc274e	0.024921086
119	0x3e93b45a	0.28848535
120	0xbea2ee92	-0.3182264
121	0xbd902b07	-0.07039457
122	0x3ea39bd1	0.31954816
123	0x3e6d8403	0.2319489
124	0x3ec1f0a7	0.37878916
125	0x3efd25cb	0.49442896
126	0x3eb6c5d1	0.35697797
127	0xbefd2749	-0.49444035

blocks.0.xlstm.mlstm_cell.igate.weight f4 [2, 384]
0	0x3c16a5f8	0.0091948435
1	0xbbf10f5d	-0.007356568
2	0xbb4949d4	-0.003071417
3	0x3beefa8f	0.0072930525
4	0xbca12a69	-0.019673543
5	0x3c5ca26f	0.013466462
6	0x3c6aee08	0.014338978
7	0xbcf1f2fe	-0.029534813
8	0xbc7b2d84	-0.015330676
9	0xbc6d6eba	-0.014491731
10	0x3c8851bb	0.016640535
11	0x3a327bd8	0.0006808615
12	0xbaab603c	-0.0013074945
13	0xbc8b45da	-0.017001081
14	0xbc83430d	-0.016023183
15	0xbcb0f4be	-0.021601077
16	0xbc80ccdb	-0.015722683
17	0xbc03bb20	-0.00804022
18	0x3c63eda3	0.0139116375
19	0xbb122711	-0.0022301117
20	0xbb574e6f	-0.0032853147
21	0x3c0c7afe	0.0085742455
22	0xbc3cc48b	-0.011521469
23	0xbc53faac	-0.012938183
24	0x3cace1d0	0.02110377
25	0xbc3059db	-0.010763611
26	0x3c4bed54	0.01244672
27	0x3bb11b86	0.0054048924
28	0x3b446a08	0.0029970426
29	0x3bd0fdd0	0.006377913
30	0x3c504939	0.01271277
31	0x3c39bd82	0.011336686
32	0x3cf916c0	0.030406356
33	0xbcc5f801	-0.024166109
34	0x3ce39f4b	0.027785918
35	0x3ba6de31	0.0050924052
36	0x3c245438	0.010029845
37	0x3b49d549	0.0030797294
38	0x3b8cc0c9	0.0042954427
39	0xbc19457d	-0.009354946
40	0x3c60aecd	0.013713551
41	0xba947604	-0.0011326675
42	0x3d000bb7	0.031261172
43	0x3c2ac3f2	0.010422694
44	0x3be3b250	0.0069487467
45	0xbc82d763	-0.015971845
46	0x3c8b4594	0.01700095
47	0x3b7aa651	0.0038246105
48	0x3b740ccf	0.003723908
49	0xbbcaae94	-0.006185362
50	0x39e8f0bd	0.00044429852
51	0x3c62836e	0.013825281
52	0xbadcbae6	-0.0016840368
53	0xbc743187	-0.014904386
54	0xba8abca1	-0.001058478
55	0x3bcb8be0	0.0062117428
56	0xbc4acf43	-0.012378517
57	0xbbbbc819	-0.0057306406
58	0x3c824db1	0.015906187
59	0xbc9b9d4e	-0.018995907
60	0xbc606e1d	-0.013698128
61	0xbc0959a3	-0.008383187
62	0xbbc89aa5	-0.0061219507
63	0x3a18cb6e	0.0005828653
64	0xbc80c80d	-0.015720392
65	0xbcbe9c13	-0.023267781
66	0x3c6d8dc6	0.014499133
67	0xbc1d015f	-0.009582846
68	0x3bf8ab71	0.007588797
69	0x3c856224	0.016282149
70	0x3c937d10	0.01800397
71	0xbc37d3e0	-0.0112199485
72	0x3be58f90	0.0070056394
73	0x3c8a1d47	0.016859664
74	0x3cd9ab20	0.026570857
75	0xbc07c2c4	-0.008286182
76	0x3b692360	0.0035574064
77	0x3ce0ab42	0.027425412
78	0x3be7f0a3	0.0070782467
79	0xbc575b6e	-0.013144357
80	0xbbed74e5	-0.007246601
81	0x3be2513e	0.0069066575
82	0xbbe4921a	-0.0069754245
83	0x3c77bbfa	0.015120501
84	0x39d6c922	0.00040967116
85	0x3caa4b5a	0.020787884
86	0xbc560574	-0.013062824
87	0xbcc99ce5	-0.024610946
88	0x3a68f148	0.00088860514
89	0xbc8a28ae	-0.0168651
90	0x3c791d9b	0.015204812
91	0xbc1866f6	-0.009301892
92	0xbc286a64	-0.010279272
93	0xbbf8e8d2	-0.0075961137
94	0xbc3714c9	-0.011174389
95	0x3c399f0e	0.0113294255
96	0x3c9193b6	0.01777063
97	0xb9b7708b	-0.0003498833
98	0x3c794f6e	0.015216691
99	0x3c788241	0.015167774
100	0xbc28cd04	-0.010302786
101	0x3bc80d16	0.0061050756
102	0xbcc2fc1e	-0.02380186
103	0x3bfea15b	0.0077707
104	0x3b519814	0.0031981515
105	0xbc5c2a1d	-0.013437775
106	0xbc127c79	-0.008940809
107	0x3c88b2c4	0.016686805
108	0xbac50694	-0.0015031868
109	0xb89e0911	-7.535716e-05
110	0xbbc5f726	-0.0060414253
111	0xbb607f83	-0.003425569
112	0xbba75914	-0.0051070545
113	0x3b410813	0.0029454276
114	0xbc32997e	-0.010900853
115	0x3c9485ee	0.018130269
116	0xbc381866	-0.011236286
117	0x3b8863bb	0.0041622794
118	0xba0e824a	-0.00054362847
119	0x3be26e70	0.006910138
120	0x3bb03998	0.0053779595
121	0x3c065202	0.008198263
122	0x3c4a4984	0.012346629
123	0x3c98725a	0.018609215
124	0xbd28a9f9	-0.041177724
125	0xbc5bf28a	-0.013424525
126	0x3ccb1255	0.024789015
127	0xbca47959	-0.020077394
128	0x3c1d5f0f	0.009605183
129	0xbc2ba111	-0.010475413
130	0xbb041be8	-0.0020158235
131	0x3b0a6ec6	0.0021123155
132	0x3cb7af8d	0.022422576
133	0x3c8fabc0	0.017537951
134	0xbc990fc0	-0.018684268
135	0xbbe56a9c	-0.007001234
136	0x3c87faf4	0.016599156
137	0x3c3fd57f	0.011708616
138	0x39858c95	0.0002547248
139	0x3c602b42	0.0136821885
140	0x3a4c4ba0	0.00077932514
141	0x39a3d350	0.00031247223
142	0x3caee110	0.021347553
143	0xbc86a32e	-0.016435232
144	0xbc6d94ce	-0.01450081
145	0x3a52d67c	0.0008042825
146	0x3bf4525f	0.0074561085
147	0xbbb8eb85	-0.0056433105
148	0x3bc7acc3	0.006093593
149	0xbc17b9d1	-0.009260611
150	0x3c36e21b	0.011162306
151	0x3c9e69a1	0.019337477
152	0x3b047c28	0.0020215604
153	0xbb88ddda	-0.0041768374
154	0x3cf40c3d	0.029790992
155	0xb936a712	-0.00017419111
156	0x3ca6f40e	0.020380046
157	0x3bc44188	0.0059892572
158	0xbc17cbe1	-0.009264917
159	0xbba001cb	-0.0048830262
160	0xbcee30f7	-0.029076083
161	0xbbab5657	-0.0052287984
162	0x3d16a3d5	0.036777336
163	0xbc9c9860	-0.019115627
164	0x3b2c7393	0.0026314005
165	0xbc5271d1	-0.012844519
166	0xbb9537c6	-0.004553768
167	0xbaaf500a	-0.0013375294
168	0xbba29c1e	-0.0049624583
169	0x3c8283e6	0.015932035
170	0x3c2fdb53	0.010733443
171	0x3cbf5f56	0.02336089
172	0xbca6ef4b	-0.020377776
173	0x3cccde2f	0.02500829
174	0x3c4ab137	0.012371353
175	0x3b6dd01b	0.003628737
176	0xbbe4e2db	-0.006985051
177	0x3bb5a753	0.0055436282
178	0xba7437bd	-0.0009316167
179	0x3c21e5aa	0.009881416
180	0xbc8a214a	-0.016861577
181	0xbc5407d3	-0.012941319
182	0xbc965e1b	-0.01835542
183	0xbc844b05	-0.016149053
184	0xba9f4e73	-0.0012154117
185	0x3c4bf55f	0.012448638
186	0x3bed441d	0.0072407858
187	0xbce9aba4	-0.028524227
188	0x3bdc9f4f	0.0067328583
189	0x3c84c968	0.01620932
190	0x3a86b4e5	0.00102773
191	0xbc148a5e	-0.009066192
192	0xbc97c428	-0.018526152
193	0xbc8f8200	-0.017518044
194	0xbba97c88	-0.005172316
195	0xbc0afc8e	-0.008483065
196	0xbc54a42c	-0.012978595
197	0xbc1837b0	-0.009290621
198	0x3c84cbae	0.016210403
199	0x3ad64443	0.0016347248
200	0x3c043713	0.008069771
201	0xbbc99098	-0.00615127
202	0xbb873446	-0.0041261045
203	0x3ba728b9	0.00510129
204	0xbcaefe59	-0.021361517
205	0xbced39ff	-0.028958319
206	0xbc74fa9d	-0.014952329
207	0xbb04325c	-0.0020171618
208	0x3bc43219	0.0059874174
209	0xbc1c04ed	-0.009522659
210	0x3ac1ea9f	0.0014794654
211	0x3c69eb6b	0.014277319
212	0x3c898daf	0.016791193
213	0x3cace882	0.021106962
214	0x3c5647ac	0.013078611
215	0x3ce3d5d6	0.027811926
216	0x3c77bb32	0.015120314
217	0xbc10a1bb	-0.008827622
218	0x3c968a99	0.018376635
219	0x3c9f98ac	0.01948198
220	0x3c2054cc	0.009785842
221	0xbc188b00	-0.009310484
222	0x3989a3db	0.00026252758
223	0xbcbfae1a	-0.023398448
224	0x3c3a02e8	0.011353232
225	0x3c3d40d3	0.0115511
226	0xbc8b3d2a	-0.016996939
227	0x3b49b753	0.0030779436
228	0xbb9aa43b	-0.004719285
229	0x3b579d30	0.0032900088
230	0x3c6f6dd0	0.014613584
231	0xbc104dbc	-0.008807596
232	0xbc63a5c6	-0.013894504
233	0xbc66d671	-0.014089213
234	0xbc8dc914	-0.017307796
235	0xbbda903f	-0.0066700275
236	0xbc2509ba	-0.01007312
237	0xb7cb061a	-2.4202327e-05
238	0x3aa414b4	0.0012518377
239	0x3c317e47	0.0108333295
240	0x3c51a4df	0.012795656
241	0xbc317dd2	-0.010833221
242	0x3c83cf12	0.01608995
243	0x3c00a7d4	0.007852513
244	0xbca40858	-0.02002351
245	0xbc62c2a1	-0.013840348
246	0x3b4218d2	0.0029616845
247	0xbaaf375e	-0.0013367941
248	0x3c9f6038	0.01945506
249	0x3b4ec590	0.0031550862
250	0xbb0d5002	-0.002156258
251	0x3c3be840	0.011468947
252	0x3cdf2e8b	0.027243873
253	0x3ccd7600	0.02508068
254	0xbcc4c9ab	-0.024021944
255	0x3ccaa5c5	0.024737248

blocks.0.xlstm.mlstm_cell.igate.bias f4 [2]
0	0xbe93ac8c	-0.2884258
1	0x3d7bd382	0.061481006
