xlstm_ts_model.pth (torch, 521810 bytes, 56 tensors)

blocks.0.xlstm_norm.weight f4 [64]
0	0xbd0860bf	-0.03329539
1	0x3d90980f	0.07060253
2	0xbc70fff4	-0.0147094615
3	0x3c6c669d	0.014428762
4	0xbce3b455	-0.02779595
5	0x3c16cb7c	0.009203788
6	0x3c0835c3	0.008313599
7	0xba3d2b65	-0.0007216244
8	0x3c8a8162	0.016907398
9	0xbc4ee45a	-0.012627685
10	0x3c43772f	0.011930271
11	0xbb338138	-0.0027390253
12	0x3d8323d3	0.06403317
13	0xbc764466	-0.015030956
14	0x3dea3b45	0.11437086
15	0xbd0f58fb	-0.034996968
16	0x3c8f5c48	0.017500058
17	0xbcfc7627	-0.030818058
18	0x3af69566	0.0018812835
19	0xbd09e021	-0.03366101
20	0x3cc531e9	0.02407165
21	0xbc0f1090	-0.008731976
22	0xbaa244c9	-0.0012380119
23	0x3c873739	0.016505824
24	0xbbd4fb17	-0.006499659
25	0xbd15fa89	-0.036615882
26	0xbb622173	-0.00345048
27	0xbc2e7cf4	-0.010649908
28	0x3cc854b4	0.024454452
29	0x3d11c0ac	0.035584137
30	0x39dfca87	0.0004268477
31	0x3db878b9	0.09007401
32	0x3c9637b7	0.018337114
33	0xbc3ce438	-0.011529021
34	0xbc9867da	-0.018604208
35	0x3b17c164	0.0023156041
36	0xbc72e2d2	-0.014824586
37	0x3bdaa898	0.00667293
38	0xbc343c6c	-0.011000734
39	0xbcef7332	-0.029229734
40	0xbcbe2f9b	-0.02321606
41	0xbca5d7cc	-0.020244502
42	0xbc09af12	-0.008403556
43	0xbc54655d	-0.01296362
44	0xbb959de1	-0.00456594
45	0x3dd54935	0.10414354
46	0x3a8b7f3e	0.001064278
47	0xbcaafb03	-0.020871645
48	0xbb8c1ce2	-0.004275904
49	0x3c4c8d49	0.012484857
50	0x3b98ebae	0.004666767
51	0xba1b4de0	-0.0005924385
52	0xbce11784	-0.027477033
53	0x3b034e96	0.0020035855
54	0xbbd90b65	-0.006623673
55	0xbd1a6b27	-0.037699845
56	0xbc564bb9	-0.013079577
57	0xbc2d2a76	-0.0105692055
58	0xbab2a2ee	-0.0013628879
59	0xba001598	-0.000488603
60	0xbc707afc	-0.014677759
61	0xba1a8321	-0.00058941735
62	0x3c1a42d9	0.009415352
63	0x3c2e76eb	0.010648469

blocks.0.xlstm.learnable_skip f4 [128]
0	0x3f80d712	1.0065634
1	0x3f7b685e	0.98206127
2	0x3f818294	1.0117974
3	0x3f820be7	1.0159882
4	0x3f8033f3	1.0015854
5	0x3f806ebe	1.0033796
6	0x3f80e87c	1.0070949
7	0x3f82e58a	1.02263
8	0x3f7f150f	0.9964151
9	0x3f7f4d9e	0.9972781
10	0x3f73de5c	0.9526117
11	0x3f80bb33	1.0057129
12	0x3f748650	0.95517445
13	0x3f793d87	0.9735951
14	0x3f83016d	1.023481
15	0x3f803590	1.0016346
16	0x3f7ee3a3	0.99566096
17	0x3f80197c	1.0007777
18	0x3f7f1bb1	0.9965163
19	0x3f7ec702	0.9952241
20	0x3f7f5bb8	0.99749327
21	0x3f77bafa	0.9676968
22	0x3f731eef	0.94969076
23	0x3f829a8b	1.0203413
24	0x3f7f4402	0.99713147
25	0x3f7d9136	0.990497
26	0x3f81e816	1.0148952
27	0x3f81319e	1.0093267
28	0x3f73e757	0.9527487
29	0x3f7a4850	0.9776659
30	0x3f7e036f	0.9922399
31	0x3f798e92	0.9748317
32	0x3f73f778	0.9529948
33	0x3f841a84	1.0320592
34	0x3f7ceb09	0.98796135
35	0x3f7655de	0.9622477
36	0x3f7c2905	0.9850009
37	0x3f7f4400	0.99713135
38	0x3f7df2c5	0.9919856
39	0x3f798291	0.97464854
40	0x3f7d70b7	0.99000114
41	0x3f7c562e	0.98569
42	0x3f77435b	0.9658715
43	0x3f7fbdda	0.99899065
44	0x3f8115e1	1.0084802
45	0x3f806ef9	1.0033866
46	0x3f76f703	0.9647066
47	0x3f7f595f	0.99745744
48	0x3f7f2ff8	0.9968257
49	0x3f81570a	1.0104687
50	0x3f716c3b	0.9430577
51	0x3f7f72e6	0.99784696
52	0x3f7b1fa8	0.9809518
53	0x3f7bf049	0.9841352
54	0x3f7f4d00	0.9972687
55	0x3f82e543	1.0226215
56	0x3f7e800f	0.9941415
57	0x3f80d821	1.0065957
58	0x3f7923c0	0.97320175
59	0x3f7ceddc	0.98800445
60	0x3f7fa08b	0.99854344
61	0x3f77d65d	0.9681147
62	0x3f81f2a2	1.0152171
63	0x3f75fab2	0.96085656
64	0x3f8415b3	1.0319122
65	0x3f7ea1d8	0.99465704
66	0x3f7a9640	0.97885513
67	0x3f6a386a	0.9149233
68	0x3f841c01	1.0321046
69	0x3f84581a	1.0339386
70	0x3f8130ee	1.0093057
71	0x3f7f8bce	0.998227
72	0x3f7f22f3	0.99662703
73	0x3f7f4f78	0.99730635
74	0x3f7974c6	0.9744381
75	0x3f7e0228	0.9922204
76	0x3f835531	1.0260373
77	0x3f6db264	0.9285033
78	0x3f7d0077	0.98828834
79	0x3f7d4125	0.9892753
80	0x3f749537	0.95540184
81	0x3f7f7b49	0.99797493
82	0x3f7458bf	0.95447916
83	0x3f7e37d6	0.9930395
84	0x3f7fe92e	0.9996518
85	0x3f8574d3	1.0426277
86	0x3f7f2c7a	0.9967724
87	0x3f791c50	0.97308826
88	0x3f7fe8cf	0.9996461
89	0x3f7e630a	0.9936987
90	0x3f7c5d83	0.9858019
91	0x3f7ef06e	0.99585617
92	0x3f7dd5e0	0.9915447
93	0x3f80792c	1.0036979
94	0x3f7fddba	0.999477
95	0x3f85940a	1.0435803
96	0x3f7d9a7e	0.9906386
97	0x3f7c1588	0.98470354
98	0x3f7ab072	0.97925484
99	0x3f7c619b	0.98586434
100	0x3f82cdd4	1.0219064
101	0x3f850496	1.0392025
102	0x3f7d73e2	0.9900495
103	0x3f7a4862	0.977667
104	0x3f7311c2	0.9494897
105	0x3f784e6f	0.9699468
106	0x3f72496e	0.94643295
107	0x3f81b7c5	1.0134207
108	0x3f79cf9c	0.9758241
109	0x3f649462	0.89288914
110	0x3f7e0e22	0.99240315
111	0x3f73138d	0.9495171
112	0x3f7ec8d6	0.995252
113	0x3f7c8e3d	0.9865454
114	0x3f7c815f	0.98634905
115	0x3f7d0c52	0.98846924
116	0x3f7d9e50	0.9906969
117	0x3f7f3104	0.99684167
118	0x3f77dac9	0.96818215
119	0x3f8b936d	1.0904366
120	0x3f816180	1.010788
121	0x3f7c9b94	0.98674893
122	0x3f843f7f	1.0331877
123	0x3f726a6a	0.94693625
124	0x3f7f7703	0.9979097
125	0x3f8117e7	1.008542
126	0x3f805add	1.0027729
127	0x3f7bbd81	0.98336035

blocks.0.xlstm.proj_up.weight f4 [256, 64]
0	0xbda4fe86	-0.08056359
1	0x3dd56f18	0.1042158
2	0xbd2a6f29	-0.041609917
3	0xbe6d44d3	-0.23170786
4	0x3c846f85	0.016166458
5	0xbdca9418	-0.09891528
6	0xbc23ae89	-0.009990343
7	0x3c088c1c	0.008334186
8	0x37d37b02	2.521044e-05
9	0x3def107d	0.11673067
10	0xbe090b15	-0.13383134
11	0xbdae42a0	-0.085088015
12	0x3b634ec1	0.0034684392
13	0x3d2560cd	0.04037552
14	0xbd5592b8	-0.052141875
15	0xbcd36307	-0.025804056
16	0xbcb0bd4c	-0.021574639
17	0xbd6f3f71	-0.05841011
18	0x3baf4412	0.005348691
19	0x3dc071b0	0.09396684
20	0xbd485bba	-0.048915602
21	0x3e12df89	0.14343084
22	0xbe229a7c	-0.15879244
23	0xbd4a7ba0	-0.049434304
24	0x3d6718b0	0.05642003
25	0xbde4f75a	-0.11179991
26	0x3dcbc921	0.09950472
27	0x3d1dd9ac	0.038537666
28	0xbe27caf5	-0.16386016
29	0xbd5da826	-0.054115437
30	0xbd8e180c	-0.0693818
31	0x3de9e017	0.11419695
32	0xbe27a8f4	-0.16373044
33	0x3e03b583	0.1286221
34	0x3da72025	0.08160428
35	0xbd4c260f	-0.049840983
36	0xbd2a4d0f	-0.041577395
37	0xbdb9eca9	-0.090783425
38	0xbd92b790	-0.07163918
39	0xbcc2b6bb	-0.023768773
40	0x3e11d4df	0.1424136
41	0xbd7ccbda	-0.061717845
42	0x3d846fad	0.06466613
43	0xbd84a60a	-0.06476982
44	0x3e3ddc7f	0.18541144
45	0xbcd6f0cc	-0.026237868
46	0xbb859c38	-0.0040774606
47	0xbd8ac31c	-0.067754954
48	0xbd577c83	-0.052608978
49	0x3e0f574f	0.1399815
50	0xbd4f8980	-0.05066824
51	0xbcc43f22	-0.023955885
52	0x3cad9755	0.021190325
53	0xbe02e021	-0.12780811
54	0x3d4cc03b	0.049988013
55	0xbdb90774	-0.09034625
56	0xbd9ddbcd	-0.07707939
57	0x3dbfe069	0.09368975
58	0x3cdf8afd	0.027287954
59	0xbe0cb09d	-0.13739248
60	0x3ce39396	0.027780335
61	0x3c98bb51	0.018644007
62	0x3e4c4b38	0.19950569
63	0x3daa7ffb	0.083251916
64	0xbd428afd	-0.04749583
65	0x3e4bb2fc	0.19892496
66	0x3d1c14ac	0.03810565
67	0xbdcee4de	-0.10102247
68	0x3cdfe39b	0.02733021
69	0xbd5cb354	-0.053881958
70	0xbdd8e786	-0.105910346
71	0x3d1bf89e	0.038078897
72	0xbde8018c	-0.1132842
73	0xbd0ad417	-0.03389367
74	0xbdb482b4	-0.08813992
75	0xbda1ca78	-0.07899946
76	0xbd020938	-0.031747073
77	0xbc9e310d	-0.019310499
78	0xbde0610c	-0.1095601
79	0xbbd4c01f	-0.006492629
80	0x3e3e8b04	0.18607718
81	0x3db9aeb4	0.09066525
82	0x3bb53f33	0.0055312156
83	0x3c84c083	0.016205078
84	0x3d201a79	0.039087746
85	0x3dcac0c7	0.099000506
86	0x3d3c40d7	0.045960274
87	0xbd5545cf	-0.052068528
88	0xbae67b71	-0.0017584396
89	0xbd9ce9d6	-0.07661788
90	0xbcd124af	-0.025530187
91	0xbc95b671	-0.018275471
92	0x3bdb9153	0.0067006736
93	0x3c9e1b30	0.019300073
94	0x3e1cbcda	0.15306416
95	0x3e1a4dbf	0.1506872
96	0x3b58b491	0.003306661
97	0xbcb5ec2f	-0.022207348
98	0xbde4e86d	-0.11177144
99	0xbda753de	-0.08170293
100	0xbd949e1e	-0.07256721
101	0x3d35ba5e	0.044367187
102	0xbbe7002c	-0.007049581
103	0xbd572cdc	-0.052533016
104	0xbdc80df9	-0.0976829
105	0xbdda7773	-0.106673144
106	0xbc265ce9	-0.010153987
107	0xbce9c44a	-0.02853598
108	0xbcfeaf7f	-0.031089542
109	0xbe0eb232	-0.13935164
110	0xbc790004	-0.015197758
111	0xbd1689cb	-0.036752503
112	0x3c11cfbb	0.008899624
113	0x3d37f6e1	0.044913176
114	0x3b7d6cbc	0.0038669547
115	0xbc662201	-0.014046193
116	0xbe2057b4	-0.15658456
117	0x3d9ed1d3	0.077548645
118	0xbd8b8624	-0.06812695
119	0x3d5ee0ee	0.05441373
120	0x3ca3ed00	0.020010471
121	0xbd5a0a4e	-0.053232484
122	0xbd40b421	-0.047046784
123	0x3e032bb3	0.12809639
124	0xbd9c4d54	-0.07631937
125	0xbd1b7041	-0.03794885
126	0xbdb9ca1a	-0.09071751
127	0x3e349e27	0.17638455
128	0xbdaf664e	-0.08564435
129	0x3e09cda7	0.13457356
130	0xbd80b063	-0.06283643
131	0xbdcab6fa	-0.09898181
132	0x3dd3ffa2	0.103514925
133	0x3d392f90	0.045211375
134	0xbc607959	-0.013700807
135	0xbcb0c814	-0.02157978
136	0xbe4c35ba	-0.1994237
137	0xbca884f3	-0.020571208
138	0xbd78296e	-0.060586385
139	0x3dd750da	0.10513468
140	0x3d939106	0.072053954
141	0x3cd92ba0	0.02651006
142	0xbddef06e	-0.10885702
143	0x3d4c69bf	0.049905535
144	0x3d8527a6	0.06501703
145	0xbd8c501a	-0.06851216
146	0xbd56d1f2	-0.052446313
147	0xbd20f93a	-0.03930018
148	0x3ce1f435	0.027582267
149	0x3d9ccb85	0.07656006
150	0x3da6a78e	0.08137427
151	0xbcc6ea5a	-0.02428167
152	0xbd45da4d	-0.04830389
153	0x3c7dc2cd	0.015488339
154	0xbc3955d5	-0.011311968
155	0x3c93f488	0.018060938
156	0x3d667967	0.056268122
157	0x3dc2d2e1	0.09512878
158	0x3a9d04ef	0.001197962
159	0x3e2803e8	0.1640774
160	0x3de527e2	0.11189248
161	0xbda1d620	-0.07902169
162	0x3d4ef246	0.05052402
163	0xbba4d317	-0.0050300467
164	0xbe02e809	-0.12783827
165	0xbd0e5ed4	-0.034758404
166	0x3d5a26fc	0.053259835
167	0x3cb6138f	0.022226123
168	0xbd9d4d2e	-0.076807365
169	0x3c86b63a	0.016444314
170	0xbd071756	-0.03298124
171	0xbd145235	-0.03621121
172	0xbc5211fd	-0.012821672
173	0x3c731e0b	0.014838706
174	0x3cc5c870	0.024143428
175	0xbe130ca7	-0.14360295
176	0xbe09accd	-0.13444825
177	0x3d63e2f3	0.055636358
178	0xbbe3ddc1	-0.0069539254
179	0xbd0369bf	-0.03208327
180	0xbd85b8d9	-0.065293975
181	0xbda4dd0f	-0.08049976
182	0xbd99177c	-0.074751824
183	0x3dd96c07	0.10616308
184	0xbdc6f9b2	-0.09715594
185	0x3d3457ca	0.044029035
186	0xbd67975b	-0.05654083
187	0xbd46a1e2	-0.048494227
188	0x3d2994cc	0.04140167
189	0xbc4366ff	-0.011926412
190	0xbd931d7a	-0.071833566
191	0x3c8f8d98	0.017523572
192	0xbaca6dad	-0.0015444063
193	0xbd873cf0	-0.0660342
194	0xbbbde449	-0.005795036
195	0x3e4e776d	0.20162745
196	0xbd0c32ed	-0.034228254
197	0xbe06539b	-0.1311783
198	0xbcda49dc	-0.026646547
199	0x3d5986c6	0.053107046
200	0x3d456ad2	0.048197575
201	0xbe4148a2	-0.18875363
202	0x3e19d8b0	0.15024066
203	0x3db9eefc	0.09078786
204	0xbcf9786a	-0.030452926
205	0xbda283e3	-0.07935312
206	0xbd62c80f	-0.055366572
207	0x3cbe4855	0.02322785
208	0xbd6a0107	-0.057129886
209	0x3c9c2719	0.019061612
210	0xbdbce733	-0.09223785
211	0x3dad7d80	0.08471203
212	0x3cd44a0a	0.02591421
213	0xbc937a2d	-0.018002594
214	0xbd767fbc	-0.06018041
215	0xbd614c96	-0.05500468
216	0x3d6e9368	0.058246046
217	0x3caaf9ce	0.02087107
218	0xbe17f2f2	-0.1483877
219	0x3e0de594	0.13857108
220	0xbc1f6494	-0.00972857
221	0x3cbd58c6	0.02311362
222	0xbcd179ae	-0.025570717
223	0x3dd8b1a1	0.10580755
224	0x3e3725d1	0.1788552
225	0xbd52badc	-0.051447734
226	0x3b1ef204	0.002425314
227	0xbba7a7a2	-0.005116419
228	0xbe5713c1	-0.2100363
229	0x3da663f6	0.08124535
230	0xbccf3f3e	-0.02529871
231	0x3dc7eece	0.09762345
232	0x3cc92ad6	0.024556559
233	0xbd71d31c	-0.05903922
234	0x3d15502b	0.036453407
235	0xbde4ba82	-0.11168386
236	0xbd073fbf	-0.033019777
237	0x3e199257	0.1499723
238	0xbd3d48bb	-0.04621194
239	0xbd91e2bf	-0.071233265
240	0xbab35f9f	-0.0013685114
241	0x3dca0a41	0.09865237
242	0xbd91dca1	-0.0712216
243	0xbd674070	-0.056457937
244	0xbb6faf2d	-0.0036572919
245	0x3d1bc4f8	0.03802964
246	0x3d4628a5	0.048378605
247	0xbdaf2295	-0.08551518
248	0x3e0e86f1	0.13918664
249	0xbd38af6f	-0.04508918
250	0x3e232ee3	0.15935855
251	0xbac1ffdf	-0.0014800987
252	0x3d8975ad	0.06711898
253	0xbde79669	-0.11307985
254	0xbc065c7e	-0.008200763
255	0x3d94d87d	0.07267854

blocks.0.xlstm.q_proj.weight f4 [64, 2, 2]
0	0x3e26b2ea	0.16279188
1	0x3c88d0fc	0.016701214
2	0x3e705d23	0.23473029
3	0xbc0393b1	-0.008030818
4	0xbc15c16d	-0.009140355
5	0xbd9e5737	-0.07731479
6	0x3d8f0433	0.06983223
7	0xbd791995	-0.060815413
8	0x3e0609f1	0.1308973
9	0xbd04f96c	-0.03246443
10	0x3dbf56ae	0.09342705
11	0xbd112ba1	-0.035442
12	0x3df4f897	0.11961477
13	0xbc54a176	-0.012977948
14	0x3cf2d33c	0.02964174
15	0xbd8d352f	-0.068949096
16	0x3d651bab	0.05593459
17	0xbdff5d0a	-0.12468918
18	0x3d097963	0.03356303
19	0xbc0cb354	-0.008587677
20	0xbe0115d6	-0.12605986
21	0x3e13a715	0.14419205
22	0xbddac0cc	-0.10681304
23	0x3d89a86c	0.06721577
24	0x3e22c88a	0.15896812
25	0xbd918392	-0.07105173
26	0x3de94994	0.11390987
27	0x3a68e410	0.00088840816
28	0xbd853bc4	-0.0650554
29	0x3d5e9208	0.054338485
30	0xbce343d0	-0.027742296
31	0x3e0bff02	0.13671497
32	0xbde413c4	-0.111365825
33	0x3da648e4	0.081193715
34	0x3db016c4	0.08598092
35	0x3d6862f4	0.056734994
36	0xbda74905	-0.08168224
37	0x3ded1e98	0.11578101
38	0x3db2ec01	0.087364204
39	0x3d319369	0.043353472
40	0xbd98baa3	-0.07457473
41	0x3cf66dde	0.030081686
42	0x3d9996d7	0.074994735
43	0xbe2045ea	-0.1565167
44	0xbc8fa1a1	-0.017533125
45	0x3d0985dc	0.033574924
46	0x3cd4cd91	0.025976928
47	0x3d8061c6	0.06268649
48	0x3da2ea89	0.0795489
49	0x3d381eeb	0.04495136
50	0x3cf45a3c	0.029828183
51	0x3e3033ef	0.17207311
52	0x3da700be	0.081544384
53	0x3d803bdd	0.06261418
54	0x3d4d74c6	0.050160192
55	0xbce44ebc	-0.027869575
56	0x3d80ff7a	0.06298728
57	0xbca93e06	-0.020659458
58	0x3d1c9a0a	0.03823284
59	0xbd87199c	-0.065966815
60	0xbdbf848f	-0.093514554
61	0x3cfdc62e	0.030978289
62	0x3dd629b3	0.10457172
63	0xbd16c1ae	-0.0368058
64	0x3c5e1c79	0.013556593
65	0x3d8b354f	0.06797277
66	0xbd8f222d	-0.069889404
67	0x3c6d5261	0.014484973
68	0xbcc8f617	-0.024531407
69	0x3dad631b	0.084661685
70	0x3e1c9407	0.15290843
71	0x3cce9a69	0.025220113
72	0x3e1bc23a	0.1521081
73	0x3b89a930	0.004201077
74	0xbc970f66	-0.01843996
75	0xbd4e7210	-0.050401747
76	0xbcb09b53	-0.02155844
77	0x3dd18ed5	0.10232321
78	0xbd8df002	-0.069305435
79	0x3d7c3a8b	0.06157927
80	0x3d9a9c72	0.07549371
81	0x3d9732b5	0.073827185
82	0xbb5df1a6	-0.0033865958
83	0xbdce79ae	-0.10081802
84	0x3da1ae5b	0.07894584
85	0xbdd170fa	-0.10226627
86	0x3ba13ddd	0.0049207048
87	0x3e079162	0.13239053
88	0xbd7e347f	-0.062061783
89	0xbded3da1	-0.115840204
90	0x3e091079	0.1338519
91	0xbd9f3cff	-0.07775306
92	0xbd66cb9f	-0.056346532
93	0x3dbfd8ab	0.09367498
94	0x3c027490	0.007962361
95	0xbd3c1076	-0.045914136
96	0x3d351e68	0.04421845
97	0xbce6c218	-0.028168723
98	0x3dfba433	0.12287178
99	0x3b29b790	0.0025896765
100	0x3dd86c33	0.10567512
101	0xbdcbfead	-0.09960685
102	0xbd815364	-0.063147336
103	0x3d8c8098	0.06860465
104	0x3b23e628	0.002500901
105	0xbd5dfed8	-0.054198116
106	0x3cd23ffd	0.025665278
107	0xbc9c39fb	-0.019070616
108	0x3cc3f708	0.023921505
109	0x3b9ba5c6	0.0047499863
110	0x3d1d68cb	0.038430016
111	0xbc1859b4	-0.009298731
112	0x3c7e35b6	0.015515735
113	0x3de00737	0.10938876
114	0x3d51c50e	0.051213317
115	0x3d4ff270	0.050768316
116	0x3ddc7d21	0.10766054
117	0x3c673f7b	0.014114256
118	0x3d988dfb	0.074489556
119	0xbe2e28a3	-0.17007689
120	0xbe170f41	-0.14751913
121	0x3d2b9e4c	0.04189901
122	0xbcf90c31	-0.030401321
123	0xbdd4614f	-0.10370123
124	0xbc94f619	-0.018183755
125	0xbd89306e	-0.0669869
126	0x3d61636e	0.055026464
127	0xbd59d1e5	-0.053178687
128	0x3de88500	0.11353493
129	0xbd8ca4e9	-0.068673916
130	0xbcf5ba65	-0.029996106
131	0xbcc893b4	-0.024484493
132	0xbcd00591	-0.02539328
133	0xbc002fbc	-0.007823881
134	0xbd6dff01	-0.05810452
135	0xbdb6caa4	-0.089253694
136	0xbdc18e74	-0.09450999
137	0xbd387171	-0.04503006
138	0x3dcc7287	0.09982782
139	0x3dd49cb0	0.10381448
140	0x3d8d8f6b	0.069121204
141	0xbcf1fbaf	-0.029538957
142	0x3d9c2e99	0.07626075
143	0x3dc7d4ef	0.09757411
144	0x3dc1884a	0.09449823
145	0x3c8e903e	0.017402764
146	0x3e4315cd	0.19051285
147	0x3e44c6ca	0.19216457
148	0xbcaf72c5	-0.021417031
149	0xbd8be642	-0.068310276
150	0xbda8ae77	-0.082364015
151	0x3de3be3e	0.1112027
152	0xbdd8f3f9	-0.10593409
153	0x3cbb2035	0.022842506
154	0xbb8ea8f6	-0.004353638
155	0x3cd7b7a8	0.026332691
156	0xbcfb267a	-0.030657995
157	0xbe0570c3	-0.13031296
158	0x3d034223	0.032045495
159	0x3e23771c	0.15963405
160	0xbc6c3665	-0.014417266
161	0x3d92d479	0.07169432
162	0x3a9c2146	0.0011911772
163	0xbd765afe	-0.06014537
164	0x3d16403c	0.036682352
165	0xbc13e1b8	-0.0090259835
166	0x3ddba563	0.107249044
167	0xbaec5b4f	-0.0018032583
168	0xbdef7aab	-0.11693319
169	0x3d8eb4cf	0.0696808
170	0x3cfcd292	0.030862126
171	0xbd23e7c0	-0.040015936
172	0x3d9b94e6	0.075967595
173	0xbd5b72b2	-0.05357618
174	0xbbe38d8c	-0.006944364
175	0xbde08722	-0.109632745
176	0x3d7f7333	0.062365722
177	0xbdaeacc7	-0.085290484
178	0xbddf65da	-0.109080985
179	0xbc89255f	-0.016741453
180	0x3d99d8db	0.07512065
181	0xbc849a79	-0.01618694
182	0xbcaab90e	-0.020840194
183	0xb9efd530	-0.0004574447
184	0x3df80d3c	0.12111899
185	0xbb193e1a	-0.0023382963
186	0x3d2263cf	0.039645966
187	0x3cc6e5bf	0.024279473
188	0xbdd31ad0	-0.103078485
189	0xbd031aa7	-0.03200784
190	0xbdb0b2c6	-0.08627848
191	0xbc9f6b00	-0.019460201
192	0xbd9360cf	-0.07196199
193	0xbdfe4f18	-0.1241743
194	0x3d372da0	0.044721246
195	0x3e2608b9	0.16214265
196	0xbd2082d9	-0.039187286
197	0x3d7798c3	0.06044842
198	0xbd311001	-0.043228153
199	0x3d0b82db	0.03406034
200	0xbdd98b9d	-0.10622332
201	0xbc1a3fde	-0.009414641
202	0xbe02b85d	-0.12765642
203	0x3ca1bda1	0.019743742
204	0x3d701cfc	0.05862139
205	0x3dcbffa6	0.099608704
206	0x3d1d59b0	0.03841561
207	0x3de65bcc	0.112479776
208	0xbd3249ec	-0.04352753
209	0xbc114abf	-0.0088679185
210	0x3dbd389a	0.092393115
211	0xbc535a19	-0.012899899
212	0x3bfb3ac2	0.0076669166
213	0xbc9b43ef	-0.018953292
214	0xbbabcd49	-0.0052429778
215	0xbd93214e	-0.07184087
216	0xbb6c27ea	-0.0036034533
217	0x3db1c372	0.08679856
218	0xbd5ff9e4	-0.054681674
219	0xbe294b16	-0.1653255
220	0x3dd79b90	0.10527718
221	0xbdc77176	-0.09738438
222	0xbd46ec29	-0.048565064
223	0x3dcc5010	0.09976208
224	0xbc1737ee	-0.009229643
225	0x3da1fb9e	0.0790932
226	0x3ba1dd72	0.0049397284
227	0xbd238059	-0.039917324
228	0x3d346c35	0.044048507
229	0xbdb7ec7a	-0.08980651
230	0x3d8915a8	0.06693584
231	0xbc8bddf6	-0.017073613
232	0xbdf899b9	-0.12138695
233	0xbc8a960b	-0.01691725
234	0x3cc1ba64	0.023648448
235	0x3d03b899	0.032158468
236	0xbdc9104b	-0.09817561
237	0xbdee8979	-0.116473146
238	0x3d896005	0.067077674
239	0xbe2dddef	-0.16979192
240	0xbe484a4b	-0.1955959
241	0x3df669a5	0.12031869
242	0x3d3e6dc5	0.046491403
243	0x3d89b6a2	0.067242876
244	0xbcf36d38	-0.029715165
245	0x3c0b85b6	0.008515766
246	0x3cc7cd0e	0.02438977
247	0xbd88bf49	-0.0667711
248	0xbd9edf28	-0.077574074
249	0xbe1d0663	-0.15334468
250	0x3d15dc9c	0.036587343
251	0x3d240aa2	0.040049203
252	0x3b28f5d7	0.0025781298
253	0x3d833dd9	0.06408281
254	0x3e06ce3e	0.13164613
255	0xbab15954	-0.001353065

blocks.0.xlstm.k_proj.weight f4 [64, 2, 2]
0	0x3daebd73	0.08532228
1	0xbceb44d7	-0.028719349
2	0x3d8bb2d1	0.06821216
3	0xbd67c08f	-0.056580123
4	0xbdc9d88c	-0.09855756
5	0x3dbe550b	0.092935644
6	0x3d7614c8	0.060078412
7	0x3c182266	0.009285545
8	0x3cd14540	0.025545716
9	0xbc78e6ef	-0.015191778
10	0xbdeb95ec	-0.11503205
11	0xbd8fb1ae	-0.070163116
12	0xbbaa75d8	-0.0052020364
13	0x3d370b3f	0.04468846
14	0xbcac368a	-0.0210221
15	0xbd31842b	-0.043338936
16	0xbc6fce5f	-0.014636605
17	0x3d372f10	0.044722617
18	0x3d92426f	0.071415775
19	0xbc9c0c23	-0.019048756
20	0x3d817716	0.06321542
21	0x3dd4fc7e	0.103997216
22	0x3d8448e2	0.06459214
23	0x3d11fba3	0.03564037
24	0x3dc6291b	0.09675809
25	0x3d0400a4	0.032227173
26	0x3d0e6b8c	0.034770533
27	0x3e0fd9a5	0.14047869
28	0x3db5bfa2	0.08874442
29	0xbc7c092d	-0.015383047
30	0x3cdb0a02	0.02673817
31	0x3cae9e69	0.02131577
32	0x3d9a941b	0.0754778
33	0x3e2f1d25	0.17100962
34	0xbd233846	-0.03984859
35	0x3b80307a	0.003912029
36	0xbe15d2d3	-0.14631204
37	0x3bd292a1	0.006426171
38	0x3d51085a	0.051033355
39	0x3dbf42cc	0.09338912
40	0xbbc9ee78	-0.006162461
41	0xbc49f3bc	-0.012326177
42	0x3c27b096	0.010234972
43	0x3de7ab28	0.11311942
44	0xbc85ff93	-0.016357219
45	0xbdcffb76	-0.10155384
46	0x3d36ff09	0.044676814
47	0xbcb9146e	-0.02259275
48	0xbd9d4f97	-0.07681196
49	0xbd63d99b	-0.055627447
50	0x3be530dd	0.0069943503
51	0xbd3a4a3c	-0.04548095
52	0xbbfaf422	-0.0076584974
53	0x3de72438	0.11286205
54	0xbdcc425e	-0.09973596
55	0x3cd54703	0.026034838
56	0x3dc8b461	0.098000295
57	0xbcbeba5c	-0.023282222
58	0x3df3c450	0.11902678
59	0xbda69be1	-0.081352
60	0x3e25767b	0.16158478
61	0xbc10a1f7	-0.008827678
62	0xbcab75e1	-0.020930232
63	0xbc1a7714	-0.0094278045
64	0xbd846050	-0.06463683
65	0x3d7f0c4e	0.062267594
66	0xbd8f4102	-0.06994821
67	0xbdeef77a	-0.11668296
68	0x3dae3107	0.08505445
69	0x3e1cf39b	0.15327303
70	0xbbbbd323	-0.0057319566
71	0xbbfe8d1c	-0.0077682864
72	0x3dc4c0dc	0.096070975
73	0x3d05a291	0.03262574
74	0x3c0af778	0.008481853
75	0x3c92b7d6	0.017909925
76	0xbb67d84e	-0.003537673
77	0x3d34b80b	0.04412083
78	0xbd93b933	-0.07213058
79	0xbe046793	-0.12930135
80	0xbb6dd58e	-0.0036290619
81	0xbdaa2b78	-0.08309072
82	0xbd3c2a99	-0.04593906
83	0x3dd65030	0.10464513
84	0x3b703f25	0.003665873
85	0x3d19a0d8	0.03750691
86	0x3d504448	0.050846368
87	0x3ded36fa	0.115827516
88	0x3daaba0e	0.08336268
89	0xbe1a0b9a	-0.15043488
90	0x3cd91247	0.026497973
91	0xbd286230	-0.041109264
92	0x3d1d32b6	0.03837844
93	0x3d2d321e	0.042284124
94	0xbd6277a2	-0.055289872
95	0xbd4050cb	-0.04695205
96	0x3dcad1c2	0.099032894
97	0xbcec1d9e	-0.028822716
98	0x3ba9ce8f	0.0051820944
99	0x3da95e0c	0.08269891
100	0xbe19679c	-0.1498093
101	0x3d930146	0.07177977
102	0x3d6499d7	0.055810776
103	0xbc6a0c6f	-0.014285191
104	0xbd3a4677	-0.045477357
105	0x3d782666	0.060583495
106	0x3d8c3a70	0.068470836
107	0x3ce5355b	0.027979543
108	0xbd21d9a3	-0.039514195
109	0x3d831519	0.064005084
110	0xbc59e2ca	-0.0132987
111	0xbe0a12ce	-0.13483736
112	0x3d94b228	0.07260543
113	0x3d6fbb6d	0.058528353
114	0xbe6b39cf	-0.22971271
115	0xbd1824aa	-0.03714434
116	0x3dbcdeb2	0.09222163
117	0xbd523d81	-0.051328186
118	0x3da41984	0.08012679
119	0xbd4faaef	-0.050700124
120	0x3e02ee7e	0.1278629
121	0xbb2335e6	-0.0024903952
122	0x3dff02a2	0.12451674
123	0xbaa742e8	-0.0012761028
124	0x3d23fe4f	0.04003745
125	0x3b12aa16	0.002237921
126	0x3dbfc574	0.09363833
127	0xbb0599f1	-0.0020385946
128	0xba8b23c2	-0.0010615515
129	0xbde44925	-0.11146764
130	0xbdc2d916	-0.09514062
131	0xbdbf28dd	-0.09333966
132	0x3d796c5f	0.060894366
133	0x3dce8c9c	0.10085413
134	0xbc65b740	-0.014020741
135	0xbc8672ad	-0.016412104
136	0xbd420d31	-0.04737586
137	0x3ca0e3fa	0.019639958
138	0x3cf5a5f7	0.029986365
139	0x3d4da779	0.050208542
140	0x3dab1225	0.0835307
141	0x3ce15cb1	0.027510019
142	0x3cda4472	0.026643965
143	0x3ca6d44c	0.020364903
144	0x3c080bf1	0.008303628
145	0xbd9b3ad7	-0.07579582
146	0x3db1db25	0.086843766
147	0x3dd0d908	0.101976454
148	0x3cc4522c	0.023964964
149	0xbe7a7ee2	-0.24462464
150	0xbdceec87	-0.10103708
151	0xbe1eb468	-0.15498507
152	0xbdb36a73	-0.08760538
153	0xbda75e5c	-0.081722945
154	0x3daba8d7	0.08381813
155	0x3d41e88c	0.047340915
156	0xbd048a01	-0.032358173
157	0xbbfa9c2b	-0.007648011
158	0x3d0befc3	0.0341642
159	0xbd7cdcc1	-0.061733965
160	0x3cc688df	0.024235187
161	0xbb467363	-0.0030281178
162	0x3cb03e2a	0.021514017
163	0xbb6b2cd8	-0.0035884883
164	0x3c9f2e1f	0.019431172
165	0x3d9113a7	0.070838265
166	0x3da7a7ea	0.08186324
167	0xbccddbed	-0.025129283
168	0x3dae9549	0.08524568
169	0xbe189e95	-0.14904244
170	0xbd868e4f	-0.06570112
171	0x3dbdf2e4	0.09274843
172	0x3ddf2ff6	0.1089782
173	0xbd95a407	-0.07306676
174	0x3d8d95b3	0.069133185
175	0xbd1b8c33	-0.0379755
176	0xbe16f5c1	-0.14742185
177	0xbdcf1653	-0.1011168
178	0xbd61266e	-0.05496829
179	0xbd81012a	-0.0629905
180	0xbd907983	-0.070544265
181	0x3b9849a5	0.004647451
182	0x3d821ec9	0.06353528
183	0x3d74d76f	0.059775766
184	0x3b8be3a2	0.0042690793
185	0xbd1d8fff	-0.038467404
186	0xbd437418	-0.047718138
187	0xbda16d74	-0.07882205
188	0xbd5d3c0c	-0.054012343
189	0x3d1b3d3a	0.037900187
190	0x3caa7d50	0.020811707
191	0xbdff51f4	-0.12466803
192	0x3d32788f	0.043572005
193	0x3e08a96c	0.1334588
194	0x3e2518bc	0.16122717
195	0x3e0447a7	0.12917958
196	0xbd2385c1	-0.03992248
197	0xbdefe1ab	-0.117129646
198	0xbd843f52	-0.0645739
199	0xbcedc4e7	-0.029024554
200	0xbc626653	-0.013818341
201	0xbe5539fb	-0.20822899
202	0x3d60f6c5	0.054922838
203	0xbdcc0605	-0.09962086
204	0xbd4081f0	-0.046998918
205	0xbe0a4773	-0.13503818
206	0x3d859b2c	0.06523737
207	0x3c616a41	0.013758243
208	0xbbc9575d	-0.0061444477
209	0xbddbae95	-0.10726658
210	0x39e1dadd	0.0004307841
211	0xbcfcd236	-0.030861955
212	0xbcf31e48	-0.029677525
213	0x3cbb5f24	0.022872515
214	0x3dc362ab	0.09540304
215	0x3e260c5a	0.16215649
216	0x3d59a0ba	0.053131796
217	0x3d9538fb	0.07286259
218	0xbae970f5	-0.0017810153
219	0x3d975a52	0.07390274
220	0xbdef0b68	-0.116720974
221	0x3d4810a5	0.048844
222	0x3da65f17	0.08123606
223	0x3c7611ea	0.0150189195
224	0xbc63741c	-0.013882663
225	0xbe49d03b	-0.1970834
226	0x3e11a30f	0.14222358
227	0x3d5534ae	0.052052192
228	0x3d7a16c4	0.061056867
229	0x3e01d722	0.12679723
230	0x3caf42f2	0.021394227
231	0xbc528625	-0.012849365
232	0xbd8a6375	-0.06757251
233	0xbd9066f9	-0.070508905
234	0xbe529a30	-0.2056663
235	0xbd1364df	-0.03598487
236	0x3d3eaf98	0.046554178
237	0xbe08da0b	-0.13364427
238	0x3d57c8fe	0.052681915
239	0x3dd0c55d	0.10193894
240	0x3c4db6b3	0.012555766
241	0xbd7f5e22	-0.06234563
242	0xbe04497e	-0.1291866
243	0x3dc2011f	0.0947287
244	0xbe71d762	-0.23617318
245	0xbda43ba1	-0.08019186
246	0x3e75dc46	0.24009809
247	0xbdae5985	-0.08513168
248	0x3da3d2e2	0.07999207
249	0xbd001cc9	-0.03127745
250	0xbdccf215	-0.10007111
251	0x3c589165	0.0132182585
252	0xbdbf4c10	-0.0934068
253	0xbda70862	-0.08155896
254	0xbdf594bf	-0.11991262
255	0x3c2ba109	0.0104754055

blocks.0.xlstm.v_proj.weight f4 [64, 2, 2]
0	0x3dd5283b	0.10408064
1	0x3c17550f	0.009236588
2	0xbcfeda24	-0.031109877
3	0xbe24d6cf	-0.16097568
4	0xbd0a2d00	-0.03373432
5	0xbc0b7f68	-0.008514263
6	0x3d4d1aab	0.05007426
7	0x3e19ec35	0.15031512
8	0x3e1994e2	0.149982
9	0xbe1cd689	-0.15316214
10	0x3cbd65c5	0.023119817
11	0xbb8053cb	-0.003916239
12	0xbda1a5df	-0.078929655
13	0xbc69d97c	-0.014273044
14	0x3d2bc487	0.04193547
15	0xbd45df13	-0.048308443
16	0x3d284083	0.04107715
17	0x3e8411bf	0.2579479
18	0x3c9dc3bc	0.019258372
19	0xbc096d7f	-0.008387922
20	0xbba0586e	-0.004893354
21	0x3db22938	0.08699268
22	0xbbdad39e	-0.0066780588
23	0x3d754e46	0.0598891
24	0xbdb897ef	-0.09013354
25	0x3d1900d5	0.03735431
26	0xbcad69d9	-0.021168636
27	0xbde130fe	-0.10995673
28	0x3d18d8c2	0.03731609
29	0xbdd5db78	-0.10442251
30	0x3dc39939	0.09550709
31	0x3d66433c	0.056216463
32	0x3c5f3468	0.0136233345
33	0x3d8f2198	0.069888294
34	0xbdfea735	-0.12434236
35	0xbc62ac61	-0.013835044
36	0xbd43eb78	-0.047831982
37	0xbc14579e	-0.009054093
38	0x3d88227e	0.06647204
39	0x3da30d3a	0.07961507
40	0xbbc33f9c	-0.0059585106
41	0xbdccddff	-0.1000328
42	0xb9d23a16	-0.000400976
43	0xbd691455	-0.056904156
44	0xbd34bce1	-0.04412544
45	0xbd4f5c1c	-0.05062495
46	0x3c582413	0.0131921945
47	0x3d825780	0.063643456
48	0xbc252e03	-0.010081771
49	0x3dc3f0cb	0.09567412
50	0xbb986411	-0.0046506007
51	0xbd9b441d	-0.07581351
52	0x3d6b6993	0.05747373
53	0x3dd097e3	0.1018522
54	0x3e02f6d7	0.12789474
55	0xbdc866fd	-0.097852685
56	0xbc300fdf	-0.010745971
57	0xbbc8c3a2	-0.006126837
58	0xbd537922	-0.051629193
59	0x3e25ac31	0.16178967
60	0xbd1eaa6d	-0.03873675
61	0x3bf850ff	0.007578015
62	0x3c7d5de3	0.015464279
63	0xbd82f1bf	-0.06393766
64	0x3d64b08b	0.055832427
65	0xbc9bd5a4	-0.01902277
66	0x3d55b1f0	0.052171648
67	0x3d86c87f	0.0658121
68	0xbd95e43e	-0.07318924
69	0x3bcb5532	0.0062052244
70	0x3d469388	0.04848054
71	0x3d1c9fe8	0.038238436
72	0xbe4fb287	-0.20282947
73	0x3e0fc085	0.14038284
74	0xbd9e3ccc	-0.0772644
75	0xbe0b6e04	-0.13616186
76	0xbd0f4ce7	-0.03498545
77	0xbd31c28b	-0.04339842
78	0xbc391ea6	-0.011298811
79	0x3d3cdd01	0.046109203
80	0xbc931096	-0.017952245
81	0xbd938b85	-0.072043456
82	0xbdd8c418	-0.10584277
83	0x3d02072a	0.031745113
84	0xbe2889db	-0.16458838
85	0xbe1b00da	-0.15137044
86	0x3cb58f49	0.02216305
87	0xb9cf9896	-0.00039595802
88	0x3c24e7ad	0.010065001
89	0xbcff8d99	-0.031195449
90	0x3e1979af	0.14987825
91	0x3b9461ff	0.0045282836
92	0xbd60c77a	-0.054877736
93	0x3d78407d	0.060608376
94	0x3d98e95e	0.07466386
95	0xbcfe1112	-0.031014
96	0xbdb0d98a	-0.08635242
97	0x3b72ec3f	0.0037067083
98	0x3c0666f5	0.008203258
99	0x3d3cba88	0.046076328
100	0xbdc5010a	-0.09619339
101	0xbd1768a0	-0.036965013
102	0xbbef96bf	-0.0073116715
103	0xbca67b5e	-0.020322498
104	0x3d70a323	0.05874933
105	0xbcfa800d	-0.030578637
106	0xbcd593d9	-0.026071476
107	0xbcd4dbed	-0.025983775
108	0x3d67c9e7	0.056589033
109	0x3df98ad0	0.121846795
110	0xbe23afdb	-0.15985052
111	0x3e055fde	0.13024852
112	0x3d315699	0.043295477
113	0x3d9b6ad0	0.07588732
114	0xbdeb0f2a	-0.11477502
115	0x3dfbbc9a	0.12291832
116	0xbdd8611a	-0.10565396
117	0x3d9475b6	0.07249014
118	0xbd51c476	-0.05121275
119	0x3d9b73a7	0.07590418
120	0xbd63a29f	-0.05557501
121	0x3dbf784e	0.09349118
122	0xbd7092d9	-0.058733795
123	0x3c973db6	0.018462043
124	0x3e6ba701	0.23012926
125	0xbdc2ba01	-0.09508134
126	0x3d126e3d	0.035749663
127	0x3dc57829	0.09642059
128	0xbd004f82	-0.031325825
129	0x3d793670	0.06084293
130	0xbdabd705	-0.08390621
131	0x3d8c80e9	0.06860525
132	0x3c8e205d	0.017349416
133	0xbd56e83d	-0.052467573
134	0xbdee52eb	-0.11636909
135	0x3ceab687	0.028651489
136	0x3d286d26	0.041119717
137	0x3cbca8d4	0.023029722
138	0xbb8a1dc6	-0.004214975
139	0xbdf7cf09	-0.12100036
140	0xbd9fb4cf	-0.077981584
141	0x3dd93d57	0.10607403
142	0xbad87dab	-0.0016516944
143	0xbda60456	-0.08106296
144	0xbdaa56ed	-0.08317361
145	0xbcaed1dc	-0.021340303
146	0x3d809b07	0.06279569
147	0x3dbb0ee3	0.09133699
148	0xbcd7765f	-0.02630156
149	0x3da78c0b	0.08181008
150	0xbcf89416	-0.03034405
151	0xbe695e43	-0.22789864
152	0xbdbd540c	-0.09244546
153	0xbd310fdb	-0.04322801
154	0xbdc2943e	-0.09500931
155	0xbd9db6f4	-0.07700911
156	0xbdc3c22d	-0.095585205
157	0x3de1be54	0.1102263
158	0x3db14bd7	0.086570434
159	0x3c1e604d	0.009666515
160	0xbc914aaa	-0.017735798
161	0x3d8b4dd3	0.06801953
162	0x3cdeac8e	0.02718189
163	0xbdab19cd	-0.083545305
164	0xbb9285d7	-0.0044715214
165	0x3bd722e6	0.0065654395
166	0x3d409eb7	0.047026362
167	0x3d02cb8a	0.03193239
168	0x3e23667a	0.1595706
169	0xbe386f0c	-0.18011111
170	0x3d82587a	0.06364532
171	0x3bdab706	0.00667465
172	0xbc89c3ab	-0.016816935
173	0xbd0591b9	-0.032609675
174	0x3cfd41b0	0.030915111
175	0x3d01b544	0.03166701
176	0xb9526d81	-0.00020067954
177	0x3da54c6e	0.080712184
178	0x3b4d7faa	0.0031356611
179	0xbd38a3f7	-0.045078244
180	0x3de7cc46	0.11318259
181	0x3ddb9922	0.10722567
182	0x3c2ba0ba	0.010475332
183	0x3d5833bd	0.052783716
184	0x3d174850	0.036934197
185	0xbd5bfca0	-0.05370772
186	0xbd367dde	-0.04455363
187	0x3d0fba12	0.03508956
188	0x3c337c48	0.010954924
189	0xbd5870c7	-0.052841928
190	0x3cba9509	0.022776144
191	0x3b96b64b	0.0045993677
192	0xbe12ba1b	-0.14328806
193	0xbc747c32	-0.014922189
194	0xbda78d53	-0.08181252
195	0xbd898cce	-0.067163095
196	0xbbd3fa46	-0.006469044
197	0x3aeb4212	0.0017948768
198	0x3e10299f	0.14078377
199	0xbbc18814	-0.0059061144
200	0xbe3f695b	-0.18692534
201	0x3d46f78b	0.04857592
202	0xbdf49a4a	-0.11943491
203	0x3daa973d	0.08329628
204	0x3b285339	0.002568437
205	0xbd3eb80d	-0.046562243
206	0xbc22b906	-0.009931808
207	0xbdbee4bf	-0.093209736
208	0xbe2080ee	-0.15674183
209	0xbd852ceb	-0.06502708
210	0x3af75cb2	0.001887223
211	0xbd42dc1a	-0.047573186
212	0xbdf642a5	-0.1202443
213	0xbe19861f	-0.1499257
214	0x3d0c398a	0.03423456
215	0xbdd6f17c	-0.10495278
216	0xbccd351d	-0.02504974
217	0xbdcf0414	-0.101082
218	0x3e25b940	0.16183949
219	0x3d82f7e5	0.063949384
220	0xbdbc1e11	-0.09185422
221	0x3d89c535	0.067270674
222	0x3cfaea5f	0.030629335
223	0x3d5b1bac	0.053493187
224	0x3dbe7a5e	0.093006834
225	0xbd814b4c	-0.0631319
226	0xbe155a6c	-0.14585274
227	0xbd4f7c73	-0.050655793
228	0xbdaedb50	-0.08537924
229	0xbded4490	-0.11585343
230	0x3ca789b9	0.020451413
231	0xbceace33	-0.028662777
232	0x3d8e0567	0.06934624
233	0x3dab6638	0.08369106
234	0x3bf18f16	0.0073717935
235	0x3e14e488	0.14540303
236	0x3d32a5cc	0.043615147
237	0x3c5c68f3	0.013452756
238	0xbb757a9a	-0.003745711
239	0xbd64b1e3	-0.05583371
240	0x3d43e1a7	0.04782262
241	0x3d470fa6	0.048598908
242	0xbd9e7a9f	-0.07738232
243	0x3afd649c	0.0019332352
244	0x3c2830bd	0.010265526
245	0x3d428873	0.04749341
246	0xbdee45ad	-0.11634383
247	0x3e49fd91	0.19725634
248	0x3dc16306	0.09442715
249	0x3d6eccb9	0.058300707
250	0x3c534b26	0.012896335
251	0xbc9943f4	-0.01870916
252	0xbdaa1a8a	-0.08305843
253	0xbd378a60	-0.0448097
254	0xbdd9ffa0	-0.1064446
255	0x3c867193	0.016411578

blocks.0.xlstm.conv1d.conv.weight f4 [128, 1, 4]
0	0x3bc1e353	0.0059169917
1	0xbd6a3434	-0.05717869
2	0xbeb27bd7	-0.34860107
3	0xbee8be25	-0.4545757
4	0xbe125fbe	-0.14294335
5	0xbe65527f	-0.22394751
6	0x3e6b63f5	0.2298735
7	0x3d4d8fdf	0.050186034
8	0x3ef62465	0.48074642
9	0x3e856754	0.26055396
10	0xbeac1179	-0.3360708
11	0xbe921543	-0.28531846
12	0xbed3ed91	-0.41392186
13	0x3e373047	0.1788951
14	0xbe0e2cc8	-0.1388427
15	0xbeda2e9c	-0.42613685
16	0x3e03a1b4	0.12854654
17	0x3f12b826	0.5731224
18	0x3f04dff3	0.5190422
19	0x3efc2d2c	0.49253213
20	0xbe8a8e3b	-0.27061638
21	0xbd28d028	-0.04121414
22	0x3cb486b8	0.022036895
23	0x3d0538e3	0.032524955
24	0x3e692dbf	0.22771357
25	0xbe2e9c0f	-0.17051719
26	0x3edc30a6	0.43005866
27	0xbe89288a	-0.2678874
28	0x3c3ffd19	0.011718058
29	0x3f04faa1	0.5194493
30	0x3df7704c	0.12081966
31	0xbe7f43a9	-0.24928154
32	0x3f041fb3	0.5161087
33	0x3eaed88e	0.34149593
34	0x3ebfea44	0.37483418
35	0x3e9cb7c1	0.30608943
36	0x3e82b06d	0.25525227
37	0x3eb6a18d	0.35670128
38	0xbec8659d	-0.39140025
39	0xbee50366	-0.44729155
40	0xbe32d73e	-0.17464921
41	0xbe92994e	-0.28632587
42	0xbe9aeeb7	-0.3026025
43	0x3e907f4d	0.28222123
44	0xbec0d361	-0.3766127
45	0xbe93ae92	-0.28844124
46	0xbd86a3b1	-0.065741904
47	0xbd1d589e	-0.03841459
48	0x3ee92e00	0.45542908
49	0xbe96f137	-0.29480907
50	0xbe5eaad4	-0.21744853
51	0xbecda0af	-0.40161654
52	0x3ebaa68d	0.36455193
53	0xbe4fff2c	-0.20312184
54	0xbeece4b9	-0.46268252
55	0x3e838620	0.25688267
56	0xbd44a80f	-0.048011836
57	0x3eb7ed0c	0.3592304
58	0xbe873e1a	-0.26414567
59	0x3eb39686	0.35075778
60	0xbeeb3962	-0.45942217
61	0xbee81144	-0.45325673
62	0x3eb156cf	0.34636542
63	0xbce5c46f	-0.028047768
64	0xbe84755c	-0.25870788
65	0x3ea95eae	0.33080047
66	0x3d13fab9	0.03612778
67	0xbe3eaf68	-0.186216
68	0xbdda8d71	-0.10671509
69	0x3e2ca533	0.16859894
70	0xbec23243	-0.37928972
71	0xbea737c5	-0.32659736
72	0xbc140676	-0.0090347435
73	0x3eb6caf6	0.35701722
74	0x3ee132b1	0.43983987
75	0x3dc37c44	0.09545186
76	0xbd86558c	-0.065592855
77	0x3ec2a6cd	0.38017884
78	0xbd46f301	-0.04857159
79	0xbded1376	-0.115759775
80	0x3d9d9cd7	0.076959305
81	0xbda89971	-0.082323916
82	0x3eddc98c	0.4331783
83	0x39a7a2f6	0.00031974138
84	0x3eeabd32	0.4584747
85	0x3e533b32	0.2062805
86	0x3d64ebad	0.05588882
87	0xbef0697f	-0.46955487
88	0xbee92303	-0.45534524
89	0xbee6cd64	-0.45078576
90	0xbe68f43b	-0.22749417
91	0x3db8f4aa	0.09031041
92	0xbe79c051	-0.24389769
93	0xbee33653	-0.44377384
94	0xbdb70ea6	-0.08938341
95	0xbe46b6ec	-0.19405717
96	0x3d5a5c45	0.05331065
97	0xbe5eb252	-0.21747711
98	0x3d941448	0.07230431
99	0x3e67f628	0.22652495
100	0xbef3cc83	-0.47616968
101	0x3e705bc0	0.234725
102	0x3e306e58	0.17229593
103	0xbe02f5a4	-0.12789017
104	0x3e736c1a	0.23771706
105	0x3c17544a	0.009236405
106	0xbe1ef141	-0.15521719
107	0x3eb4af36	0.35289925
108	0xbee6db57	-0.45089218
109	0xbeea95eb	-0.45817503
110	0xbdf1596f	-0.11784636
111	0x3e0dec51	0.13859679
112	0x3ed653d7	0.4186084
113	0xbeb19257	-0.3468196
114	0x3ddcedd1	0.107875474
115	0x3d5bb9a1	0.053643826
116	0x3e48c807	0.19607554
117	0x3d441889	0.04787496
118	0x3e8ab1ed	0.27088872
119	0xbe083a92	-0.13303593
120	0xbb6713ea	-0.0035259672
121	0x3e22cf2b	0.15899341
122	0xbd6a20fd	-0.057160366
123	0xbc198160	-0.009369224
124	0xbe9b5026	-0.30334586
125	0xbec05eac	-0.3757223
126	0x3f066a8b	0.5250632
127	0xbee2074f	-0.441462
128	0xbeae3745	-0.34026542
129	0x3a80699e	0.0009797101
130	0x3e995748	0.29949403
131	0x3d38976c	0.045066282
132	0x3e8d98aa	0.27655536
133	0x3eddc96e	0.4331774
134	0xbcefd0a1	-0.029274287
135	0x3ec1252b	0.3772367
136	0xbcf4f24e	-0.029900696
137	0xbda507b5	-0.080581106
138	0x3e829a98	0.2550857
139	0x3e6d6f47	0.2318698
140	0xbd662e9f	-0.056196805
141	0xbd9a12e0	-0.07523131
142	0x3db0d90e	0.0863515
143	0x3e5b486f	0.2141435
144	0x3ef72b82	0.4827538
145	0xbe17034c	-0.14747351
146	0x3e2b9e0b	0.16759507
147	0xbc5e1487	-0.013554699
148	0xbe9b21c0	-0.30299187
149	0x3ebfa8d6	0.374335
150	0xbe9de527	-0.30838892
151	0x3d715a16	0.058923803
152	0x3ea15817	0.3151252
153	0xbe9b2d35	-0.30307928
154	0xbd34d1df	-0.04414546
155	0xbeb18c3a	-0.34677297
156	0x3e16112d	0.1465499
157	0xbd9a0468	-0.07520372
158	0x3d02983d	0.031883467
159	0x3e060fae	0.13091919
160	0x3e93706d	0.28796712
161	0xbe7985e3	-0.2436748
162	0xbe84767c	-0.25871646
163	0x3e66af70	0.22527862
164	0xbe0efa36	-0.13962635
165	0x3e753b29	0.23948349
166	0xbe1270c8	-0.14300835
167	0xbe9562fa	-0.29177076
168	0xbe81394a	-0.2523902
169	0x3e3b3811	0.18283106
170	0xbd25d572	-0.04048676
171	0xbeda846e	-0.4267916
172	0x3e13e798	0.14443815
173	0x3ee56bfe	0.44808954
174	0x3e8c84de	0.2744512
175	0xbe756492	-0.23964146
176	0x3ecd9f43	0.4016057
177	0xbe8e448c	-0.27786672
178	0xbeb17c46	-0.34665126
179	0x3dfa186b	0.122116886
180	0x3eab3cb9	0.33444765
181	0xbe47a397	-0.19495998
182	0xbdffc77b	-0.1248922
183	0xbe752a7a	-0.23941985
184	0x3e4dcebf	0.20098399
185	0x3e69d33c	0.22834486
186	0xbe161600	-0.1465683
187	0xbd08142c	-0.033222362
188	0x3dc94f82	0.09829618
189	0xbec746a3	-0.3892108
190	0xbe79e27b	-0.24402802
191	0x3e220f32	0.15826109
192	0x3cb12e44	0.021628506
193	0xbe820ec0	-0.25401878
194	0x3e2e1c0f	0.17002891
195	0xbe9719b1	-0.29511788
196	0x3e9f04ae	0.31058258
197	0xbde90b77	-0.1137914
198	0xbebe45b1	-0.37162545
199	0xbe8f52cb	-0.27992854
200	0x3df44ed5	0.119290985
201	0xbef36776	-0.47539872
202	0xbe937e45	-0.28807274
203	0x3d0db375	0.03459497
204	0x3e3fe77c	0.18740648
205	0x3e60e0f8	0.21960819
206	0xbee3fdbb	-0.44529518
207	0xbdbbcb42	-0.09169628
208	0xbe0bb03d	-0.13641448
209	0xbeca3302	-0.3949204
210	0xbe3a334b	-0.18183629
211	0xbe7ff804	-0.24996954
212	0xbebcd487	-0.36880895
213	0xbd68e46a	-0.056858458
214	0x3ec65d5c	0.38743103
215	0xbee17b02	-0.4403916
216	0xbee56db9	-0.44810274
217	0xbdb57572	-0.088602915
218	0x3e05d1c6	0.13068303
219	0x3efd4edc	0.49474227
220	0x3efcfc54	0.4941126
221	0xbc6284cb	-0.013825606
222	0x3ec6fc98	0.3886459
223	0x3df4afe9	0.11947615
224	0xbea9e11c	-0.33179557
225	0x3ea0e149	0.3142188
226	0x3e1f2b2e	0.15543815
227	0xbde926a5	-0.11384324
228	0xbeaed3c5	-0.34145942
229	0x3e6a8564	0.22902447
230	0xbef683d6	-0.48147458
231	0x3df4b334	0.11948243
232	0x3e5566ee	0.20840046
233	0xbeeec132	-0.4663177
234	0x3e913620	0.28361607
235	0xbec5109c	-0.38489234
236	0xbec72c19	-0.3890083
237	0xbe85086d	-0.2598299
238	0xbcf9b77b	-0.030482998
239	0xbdc50fe6	-0.09622173
240	0xbe544937	-0.20731054
241	0xbed4b225	-0.41542163
242	0xbe0498c5	-0.12948902
243	0x3ee5fc25	0.44918934
244	0x3e83c554	0.25736487
245	0xbeba6674	-0.3640629
246	0x3e0a6721	0.13515903
247	0x3ebb8915	0.36628023
248	0xbed125fc	-0.40849292
249	0xbe325be4	-0.17417866
250	0xbca2358e	-0.019800927
251	0x3f034a99	0.512857
252	0x3ebc9810	0.36834764
253	0x3d7e366d	0.062063623
254	0x3ec3429b	0.38136753
255	0xbeb7bd49	-0.358866

blocks.0.xlstm.conv1d.conv.bias f4 [128]
0	0x3ec220f2	0.3791576
1	0x3ec020d0	0.37525034
2	0x3e403f0f	0.18774055
3	0xbcd2be8e	-0.02572563
4	0xbe0340c3	-0.12817673
5	0xbdacd8e0	-0.08439803
6	0xbea8f147	-0.3299658
7	0x3dd8d120	0.105867624
8	0x3ea480d4	0.32129538
9	0xbe806f1d	-0.25084773
10	0xbe225917	-0.15854298
11	0xbe751384	-0.23933226
12	0xbed69a1b	-0.41914448
13	0xbe4823b5	-0.19544871
14	0xbd07e286	-0.033175014
15	0xbe00a613	-0.12563352
16	0x3ea44f10	0.3209157
17	0xbd2f2ad0	-0.04276544
18	0xbe8e57ac	-0.27801263
19	0xbecc2d42	-0.3987828
20	0x3dfd79c6	0.12376742
21	0x3e72cee4	0.23711735
22	0x3cebe37e	0.028795
23	0xbe6ecdf4	-0.23320752
24	0xbe07963d	-0.13240905
25	0xbeb1aca0	-0.34702015
26	0xbe970de1	-0.29502776
27	0xbdec6774	-0.115431696
28	0xbdad43a7	-0.08460169
29	0xbec303d6	-0.38088864
30	0xbe5713e7	-0.21003686
31	0x3e3c3bd1	0.18382193
32	0xbaaffea2	-0.0013427327
33	0x3d59af2d	0.053145576
34	0x3c924a13	0.017857587
35	0xbed2c5da	-0.41166574
36	0x3dc4073b	0.095716916
37	0x3eea863b	0.45805535
38	0xbea6db6b	-0.32589278
39	0xbeed1f5d	-0.4631299
40	0x3e5db515	0.21651109
41	0xbe74e009	-0.23913588
42	0x3e9b237a	0.30300504
43	0xbe7a42ad	-0.24439497
44	0x3eeab0f9	0.45838144
45	0xbebad0d4	-0.36487448
46	0x3eb83bca	0.35983115
47	0x3d4985af	0.049199756
48	0x3e32231d	0.17396207
49	0x3ea1bc47	0.31588957
50	0x3e3e4bcd	0.18583603
51	0xbec02f63	-0.37536153
52	0x3e89b92b	0.26899084
53	0xbea6bb21	-0.32564643
54	0xbe8b38f8	-0.271919
55	0x3edca0fa	0.43091565
56	0xbe212631	-0.15737225
57	0xbec5bdeb	-0.38621458
58	0x3eddb006	0.43298358
59	0x3ee08019	0.4384773
60	0x3e037f21	0.12841465
61	0xbdca346b	-0.09873279
62	0x3ee11353	0.43960056
63	0xbd2d6b07	-0.042338397
64	0x3d2e5d1b	0.04256926
65	0x3ef17a25	0.471635
66	0x3de9ef01	0.114225395
67	0x3e892592	0.26786476
68	0xbe578b72	-0.21049288
69	0xbd905e7b	-0.07049271
70	0x3eb2d985	0.3493158
71	0xbe271684	-0.16317183
72	0xbed9b2b2	-0.42519146
73	0x3ecd87b1	0.40142587
74	0xbefcf05e	-0.49402136
75	0x3e1f3edc	0.15551323
76	0xbe3e4f95	-0.18585046
77	0xbe982ed2	-0.2972322
78	0x3eff2c2e	0.49838394
79	0xbec1523a	-0.37758046
80	0x3ee761f5	0.45191923
81	0x3e554008	0.20825207
82	0xbde7f3f0	-0.11325824
83	0xbef18669	-0.4717286
84	0xbee9e3b6	-0.45681542
85	0x3e83960b	0.2570041
86	0xbe946f2a	-0.2899106
87	0xbdf3d8dc	-0.11906597
88	0xbee6defe	-0.45092005
89	0x3deeb63d	0.11655853
90	0xbee422d5	-0.44557825
91	0x3ee48aa7	0.44637033
92	0x3e425434	0.18977433
93	0xbe31d4ae	-0.17366287
94	0xbef8c59f	-0.48588273
95	0xbe02b006	-0.1276246
96	0xbea07fc0	-0.31347466
97	0x3ea47a1e	0.32124418
98	0x3e777ca9	0.24168648
99	0x3ef54a8f	0.47908446
100	0x3ed4da7b	0.41572937
101	0x3ec99c64	0.3937713
102	0x3ecf03cc	0.40432584
103	0xbd8112f2	-0.06302442
104	0x3df0fe4f	0.117672555
105	0xbec48dab	-0.38389334
106	0x3e8e6218	0.27809215
107	0x3ef2bb5b	0.47408566
108	0xbe8e5f30	-0.27806997
109	0x3db527bd	0.0884547
110	0xbec9d0a4	-0.39416993
111	0xbeea4fa4	-0.45763886
112	0x3ed609da	0.4180439
113	0x3e0b2cd7	0.13591324
114	0xbe943aef	-0.28951213
115	0xbefda853	-0.49542484
116	0x3ec1389d	0.37738505
117	0xbeb4adce	-0.35288852
118	0x3eef7468	0.46768498
119	0x3ddb8800	0.10719299
120	0x3eec181e	0.4611215
121	0xbe41c012	-0.18920925
122	0xbe822b0e	-0.25423473
123	0xbe4d532f	-0.20051263
124	0x3ee18664	0.44047844
125	0xbd72b041	-0.05925012
126	0x3e7025a5	0.2345186
127	0xbed5cbed	-0.41757146

blocks.0.xlstm.mlstm_cell.igate.weight f4 [2, 384]
0	0xbc3f24e0	-0.0116665065
1	0xbc3ce43e	-0.011529027
2	0xbbd15380	-0.006388128
3	0xbc496129	-0.012291231
4	0x3c17c21f	0.009262591
5	0x3bf18b5a	0.0073713483
6	0x3bead9e6	0.007167089
7	0x3b803e44	0.0039136726
8	0x3b64609e	0.0034847627
9	0x3c4e83cd	0.012604666
10	0xbc88b492	-0.016687665
11	0xbca95f38	-0.020675287
12	0xbc3cd7b6	-0.011526039
13	0xbc08dc00	-0.008353233
14	0x3c1194ac	0.008885544
15	0x3c20439a	0.0097817425
16	0x3b885058	0.0041599683
17	0xbc084cf8	-0.008319132
18	0x397d4b4a	0.00024156008
19	0x3c20c145	0.009811704
20	0x3d2b09f5	0.041757543
21	0x3b80bd4b	0.0039288155
22	0x3a930c6e	0.0011218914
23	0xbc0c1d34	-0.008551884
24	0x3be5b7f8	0.007010456
25	0x3b17ed9c	0.0023182398
26	0x3c2322ea	0.009957055
27	0xba2a1da7	-0.0006489404
28	0xb924b8e4	-0.00015709136
29	0xbc38ee67	-0.011287308
30	0xbbd48159	-0.006485146
31	0x3bf0fb21	0.0073541556
32	0xbc4aaa65	-0.012369727
33	0xbb7b9679	-0.003838925
34	0x3bf290e6	0.007402527
35	0xbc058980	-0.008150458
36	0x3b1062e6	0.0022031604
37	0x3bfabee8	0.0076521523
38	0x3c263b8a	0.010146031
39	0x3c016ac9	0.007898995
40	0xbc3d661c	-0.011559989
41	0xbb586ece	-0.003302503
42	0xbbfe8dd3	-0.0077683716
43	0x3c345816	0.011007329
44	0xbbfdc429	-0.0077443314
45	0xbc271492	-0.010197775
46	0x3bf7e365	0.0075649493
47	0xbb6e8884	-0.0036397288
48	0xbca4eeb5	-0.020133356
49	0xbc600338	-0.013672642
50	0xbbfe3305	-0.007757547
51	0x3c00b37c	0.007855292
52	0xb983ad61	-0.00025115444
53	0xbc33fdc0	-0.010985792
54	0x3cde9bda	0.027173925
55	0xbc46c42a	-0.01213173
56	0x3c1675a1	0.009183318
57	0x3bce4437	0.006294753
58	0xbc2f526a	-0.010700801
59	0x3b59b666	0.003322029
60	0x3c217447	0.009854383
61	0x3c8239ae	0.015896644
62	0x3be9750b	0.0071245483
63	0xbc5e9978	-0.0135863945
64	0x3c019f52	0.00791152
65	0x3ba80c77	0.005128439
66	0x3a84493c	0.0010092626
67	0xbc511c2b	-0.012763063
68	0xbc6a0e00	-0.014285564
69	0x3c67d3a3	0.014149579
70	0xbd043ea1	-0.03228629
71	0xbb05c2c4	-0.0020410279
72	0x3c05fc93	0.008177894
73	0xbcecdf56	-0.028915089
74	0x3cfae6c8	0.030627623
75	0xbc920102	-0.017822746
76	0x3c357c7d	0.011077044
77	0x3c07bcc3	0.00828475
78	0xbce662cb	-0.02812328
79	0x3d1f2dfd	0.038862217
80	0xbc332fff	-0.010936736
81	0x3c05418c	0.008133303
82	0xbbb137c4	-0.005408259
83	0x3b0117b9	0.0019697978
84	0xbbf671ec	-0.0075209048
85	0x3bda7729	0.006667037
86	0x3be9e8a1	0.007138327
87	0xbbdb4c49	-0.0066924435
88	0x3c04a3e1	0.008095712
89	0xbc08715d	-0.008327809
90	0x3bb21995	0.0054351785
91	0xbc08a737	-0.008340648
92	0xbc66a16b	-0.014076571
93	0xbcec2524	-0.028826304
94	0xbc112605	-0.008859162
95	0xbc0a0ab8	-0.008425407
96	0x3bb978f6	0.0056601716
97	0xbd129062	-0.035782225
98	0xbbeb1b23	-0.007174866
99	0xbbe5ab14	-0.0070089195
100	0x3c114f41	0.008868993
101	0x3c109b4b	0.008826087
102	0xbc0d48ab	-0.008623282
103	0xbbf9ab16	-0.007619272
104	0xbb601501	-0.0034192207
105	0xbbc64285	-0.00605041
106	0x3c0ff443	0.008786264
107	0x3c114f9b	0.008869077
108	0xbc42706c	-0.011867624
109	0x3c347c87	0.011016018
110	0x3bd689f3	0.0065472065
111	0x3bf3fa41	0.007445604
112	0x3a811de8	0.0009850832
113	0xbcecb09b	-0.028892806
114	0xbb8ce5f8	-0.0042998753
115	0xba9d153a	-0.0011984475
116	0x3c18c630	0.009324595
117	0x3b0d5042	0.002156273
118	0x3bd9bf9c	0.006645156
119	0xbc0e543a	-0.008687073
120	0x3c043440	0.008069098
121	0xbbc152ba	-0.0058997544
122	0x3b54e65e	0.0032485942
123	0xbcb87688	-0.022517458
124	0x3c05e006	0.008171087
125	0xbc087374	-0.008328307
126	0x3c074972	0.008257257
127	0xbbb52102	-0.0055276165
128	0xbc555cb4	-0.01302259
129	0xbc6b7f90	-0.014373675
130	0x3c24d274	0.010059942
131	0xbc8b2f03	-0.01699019
132	0x3c6e4b1f	0.014544277
133	0xbbc8b455	-0.006125013
134	0x3b78b304	0.0037948499
135	0xbb91bf6f	-0.0044478695
136	0x3a6a90b0	0.0008947952
137	0x3c329341	0.010899366
138	0xbc220cb7	-0.009890727
139	0xbc20b4de	-0.009808747
140	0xbc6c8b44	-0.0144375
141	0x3bece272	0.007229143
142	0xbc3b6838	-0.011438422
143	0x3c54dd57	0.012992225
144	0xbc2bfffe	-0.010498045
145	0x3b7a6208	0.0038205404
146	0xbbe9bddb	-0.0071332282
147	0x3c2231c5	0.009899561
148	0x3c2d0a77	0.010561577
149	0xbbf06646	-0.0073364107
150	0x3bd69181	0.006548107
151	0xbc9328df	-0.017963825
152	0xbbd5d25c	-0.006525321
153	0x3b2a5ef3	0.0025996536
154	0x3c4a2aef	0.012339338
155	0xbba3330e	-0.0049804514
156	0xbc7173ab	-0.01473705
157	0xbc1b6818	-0.009485267
158	0x3be1055f	0.0068670954
159	0x3c96ee1e	0.01842409
160	0xbc4c95b4	-0.012486864
161	0x3c1fd899	0.009756231
162	0x3c4c03cf	0.01245208
163	0xbc6f92c2	-0.014622392
164	0x3abe2d39	0.0014509327
165	0x3b211f04	0.0024585137
166	0x3c5a3f1f	0.013320713
167	0xbb8f2e37	-0.004369523
168	0xbc8b7b0a	-0.017026443
169	0x3bb80ad5	0.0056165257
170	0x3bddfdf0	0.0067746565
171	0x3c39b2cf	0.011334135
172	0xbc107b66	-0.008818483
173	0xbc5c6016	-0.013450643
174	0xbb5ef9fa	-0.003402351
175	0x3bb12474	0.005405957
176	0xbc69a35f	-0.014260142
177	0x3b461cc2	0.0030229543
178	0x3c0b597b	0.0085052205
179	0x3c59506d	0.013263804
180	0x3b529b51	0.0032136033
181	0xbb983d6e	-0.004645995
182	0x3c599fc1	0.013282717
183	0xbc100026	-0.008789098
184	0x3c260f96	0.010135552
185	0xbbfd6523	-0.0077330037
186	0xbd34b218	-0.044115156
187	0xbc4dba49	-0.012556621
188	0xbc319926	-0.010839736
189	0xbc323bc6	-0.010878509
190	0xbc83e1d9	-0.016098903
191	0xbc6b05ae	-0.014344616
192	0x3bcb1822	0.006197945
193	0x3baef2c6	0.0053389994
194	0x3c297d03	0.0103447465
195	0xbc8f9781	-0.017528297
196	0xbc728103	-0.014801267
197	0x3c466cb5	0.012110879
198	0xbb9ad207	-0.0047247442
199	0xbb7a091b	-0.00381524
200	0x3c15aa4c	0.00913484
201	0xbbc2854b	-0.0059363
202	0x3d09768f	0.033560332
203	0xbb830cfb	-0.00399935
204	0xbc0b9c99	-0.0085212225
205	0x3c168412	0.009186761
206	0x3ba3c272	0.004997545
207	0xbc0e2701	-0.008676291
208	0xb9f8eff8	-0.00047481037
209	0x3bae7439	0.0053239134
210	0x3beaadde	0.00716184
211	0xbc041451	-0.008061484
212	0x3bec0a5e	0.0072033843
213	0xbbe9ae5c	-0.007131381
214	0x3bb50cb0	0.005525194
215	0x3b8d7fbe	0.0043182066
216	0xbbcd7e1c	-0.006271137
217	0x3b60283c	0.003420367
218	0xbb9ff210	-0.004881151
219	0xbc4c334f	-0.012463405
220	0xbc02ac78	-0.00797569
221	0x3d4cd498	0.050007433
222	0xbbec3b46	-0.0072092144
223	0xbc00cf7a	-0.007861966
224	0xbd5ce0e8	-0.053925425
225	0x3bbba134	0.005726004
226	0x3bf39027	0.007432956
227	0x3bda102d	0.0066547603
228	0x3c11d0ad	0.00889985
229	0x3c2ff67f	0.010739922
230	0x3bdba856	0.006703417
231	0xbc535483	-0.012898567
232	0xbc82fa9b	-0.015988639
233	0xbca7c354	-0.020478882
234	0xbc1e7cf2	-0.009673344
235	0xbc11e6af	-0.008905097
236	0xbc376bef	-0.011195167
237	0xbc3690e2	-0.011142941
238	0xbbe6ebd5	-0.0070471563
239	0x3bf95368	0.0076088198
240	0x3beda75f	0.007252618
241	0xbc2c3d98	-0.010512732
242	0x3bc06a11	0.005872019
243	0xbb22a68f	-0.0024818515
244	0x3c08f1ee	0.008358462
245	0x3c109ba8	0.008826174
246	0xbbf08cf1	-0.0073410203
247	0xbbf7cc46	-0.007562193
248	0xbbe083e2	-0.006851659
249	0x3c0385c0	0.008027494
250	0xbba07f55	-0.0048979917
251	0xbba0d9ed	-0.0049087913
252	0xbc215e95	-0.00984921
253	0x3c1d57ca	0.00960345
254	0x39b81125	0.00035107989
255	0x3bb66b20	0.0055669695

blocks.0.xlstm.mlstm_cell.igate.bias f4 [2]
0	0xbe0adb4a	-0.13560215
1	0x3d37788e	0.044792704
