xlstm_ts_model.pth (torch, 521810 bytes, 56 tensors)

blocks.0.xlstm_norm.weight f4 [64]
0	0x3b47b517	0.0030472928
1	0x3a9138c6	0.0011079542
2	0x3b15c94d	0.002285558
3	0xbb444553	-0.0029948547
4	0xbb32fa80	-0.0027309954
5	0xba97a2b6	-0.0011568877
6	0x3abc7b21	0.0014379957
7	0x3aaa3bb2	0.0012987761
8	0xba2ad235	-0.00065163086
9	0x3b03e5cc	0.0020125983
10	0x3b082003	0.0020771034
11	0x3ae71459	0.0017629965
12	0xbb599364	-0.0033199424
13	0xbb19ba7a	-0.0023457096
14	0x3aaa36cc	0.0012986301
15	0x3b357e6b	0.002769376
16	0xbb6ddc36	-0.0036294586
17	0x3b118e29	0.0022209978
18	0xba96078f	-0.0011446344
19	0x3aaf0e63	0.0013355728
20	0xba86f71e	-0.0010297035
21	0x3b718a44	0.0036856094
22	0xbafb1df1	-0.0019158704
23	0xba1e69b4	-0.00060429727
24	0x3ac39dc1	0.0014924334
25	0xba88ac1a	-0.0010427267
26	0x3a9286b9	0.0011179066
27	0xba79c646	-0.0009528141
28	0xbb0ed34e	-0.0021793428
29	0x3b38b49b	0.002818382
30	0xbb50b630	-0.0031846873
31	0xbb15d485	-0.0022862267
32	0xbb03b539	-0.002009703
33	0x3b846f0a	0.004041557
34	0xb9be8b18	-0.00036343257
35	0x3b69a541	0.0035651478
36	0xbb371332	-0.0027935025
37	0xb9ad811a	-0.0003309332
38	0xbb2baa04	-0.0026193867
39	0xbb2119bc	-0.002458199
40	0xba98d7b3	-0.0011660963
41	0xbb1521d6	-0.0022755763
42	0xba1fd552	-0.0006097156
43	0xbaba90fe	-0.0014233885
44	0x3b947afd	0.004531263
45	0xbaf03e77	-0.0018329163
46	0xbb0df1b8	-0.0021658968
47	0x3b07190b	0.0020614292
48	0x3a7df38b	0.0009687475
49	0x394a97d1	0.00019320777
50	0x3a68f798	0.0008886992
51	0xbb8744ac	-0.0041280594
52	0xbb5dcbb8	-0.003384335
53	0xbb22a368	-0.0024816636
54	0xbadd1d8b	-0.0016869766
55	0xbacd7fde	-0.0015678366
56	0x3b7a0dd7	0.0038155222
57	0x3b1cdb8d	0.0023934573
58	0x3a479353	0.00076132006
59	0x3aecb9ac	0.0018060706
60	0x3abf85d6	0.001461203
61	0xbb606c26	-0.003424415
62	0x3b4368c4	0.0029817084
63	0xbb5ac81d	-0.0033383437

blocks.0.xlstm.learnable_skip f4 [128]
0	0x3f800356	1.0001018
1	0x3f80408c	1.0019698
2	0x3f7f7950	0.99794483
3	0x3f801034	1.0004945
4	0x3f7ff31d	0.99980336
5	0x3f801327	1.0005845
6	0x3f7f6822	0.9976827
7	0x3f8011a7	1.0005387
8	0x3f7fac83	0.99872607
9	0x3f7feaaa	0.99967444
10	0x3f7e7d53	0.9940998
11	0x3f80696d	1.0032173
12	0x3f80a764	1.0051084
13	0x3f7fcba0	0.9992008
14	0x3f804b03	1.0022892
15	0x3f7f1040	0.9963417
16	0x3f80227a	1.0010521
17	0x3f7f92b8	0.9983325
18	0x3f80307f	1.00148
19	0x3f8041fd	1.0020138
20	0x3f801f1a	1.0009491
21	0x3f807bfa	1.0037835
22	0x3f7ed5ba	0.9954487
23	0x3f80097f	1.0002898
24	0x3f808792	1.0041373
25	0x3f7fea00	0.9996643
26	0x3f7f7af5	0.9979699
27	0x3f8005ba	1.0001748
28	0x3f8055c1	1.002617
29	0x3f7f7a4a	0.99795973
30	0x3f7fc715	0.9991315
31	0x3f801ea5	1.0009352
32	0x3f7f7005	0.99780303
33	0x3f7fe5e2	0.9996015
34	0x3f801be9	1.0008518
35	0x3f7fdf6f	0.9995031
36	0x3f7fd44f	0.9993333
37	0x3f7f0fd1	0.9963351
38	0x3f7f95fa	0.9983822
39	0x3f804589	1.002122
40	0x3f8035bc	1.0016398
41	0x3f806e6b	1.0033697
42	0x3f802df9	1.001403
43	0x3f7fc0b2	0.99903405
44	0x3f80584c	1.0026946
45	0x3f800b5a	1.0003464
46	0x3f802f55	1.0014445
47	0x3f8080f2	1.0039351
48	0x3f7f4e02	0.99728405
49	0x3f7ff3c8	0.99981356
50	0x3f7f3638	0.99692106
51	0x3f802c51	1.0013524
52	0x3f8023ac	1.0010886
53	0x3f803835	1.0017153
54	0x3f7fdf07	0.9994969
55	0x3f7ff6c7	0.9998593
56	0x3f7eec43	0.99579257
57	0x3f7f88e0	0.9981823
58	0x3f7fcf2b	0.9992549
59	0x3f804d3b	1.0023569
60	0x3f7f9d0a	0.99849
61	0x3f7f4c38	0.99725676
62	0x3f7fc900	0.99916077
63	0x3f7fc889	0.9991537
64	0x3f8002ed	1.0000893
65	0x3f7ff57e	0.99983966
66	0x3f7fd1a0	0.9992924
67	0x3f801ad8	1.0008192
68	0x3f7f8139	0.99806553
69	0x3f8010da	1.0005143
70	0x3f7fd7c6	0.9993862
71	0x3f7f4477	0.99713844
72	0x3f7fc3c9	0.9990812
73	0x3f7f2879	0.9967113
74	0x3f806ae1	1.0032617
75	0x3f8097d8	1.0046339
76	0x3f7fb157	0.99879974
77	0x3f7f786c	0.99793124
78	0x3f801b34	1.0008302
79	0x3f8032d0	1.0015507
80	0x3f803265	1.0015379
81	0x3f803cfc	1.0018611
82	0x3f7faaac	0.998698
83	0x3f7ffc2d	0.99994165
84	0x3f80246a	1.0011113
85	0x3f801535	1.0006472
86	0x3f7f6bf7	0.99774116
87	0x3f7e5c44	0.99359536
88	0x3f800158	1.000041
89	0x3f7f5c02	0.9974977
90	0x3f7f8e78	0.99826765
91	0x3f8024a7	1.0011185
92	0x3f7fb5c9	0.9988676
93	0x3f802081	1.000992
94	0x3f801b2c	1.0008292
95	0x3f8004d3	1.0001472
96	0x3f801980	1.0007782
97	0x3f7ee9da	0.9957558
98	0x3f7fbb61	0.9989529
99	0x3f80329b	1.0015444
100	0x3f7f7209	0.9978338
101	0x3f801b1a	1.0008271
102	0x3f7fe32d	0.9995602
103	0x3f7fc9ab	0.99917096
104	0x3f7fc0e6	0.99903715
105	0x3f7f7826	0.99792707
106	0x3f7f87d4	0.9981663
107	0x3f800d0c	1.0003982
108	0x3f808b0c	1.0042434
109	0x3f8067b8	1.0031652
110	0x3f7ffdd5	0.9999669
111	0x3f7feae6	0.999678
112	0x3f802dce	1.0013978
113	0x3f7f986d	0.9984196
114	0x3f801f9b	1.0009645
115	0x3f7ff0f2	0.9997703
116	0x3f7fb543	0.9988596
117	0x3f7fa710	0.9986429
118	0x3f7fdd8f	0.99947447
119	0x3f7fc9e0	0.9991741
120	0x3f7fff28	0.9999871
121	0x3f7efe3c	0.9960668
122	0x3f7fe8c7	0.99964565
123	0x3f8087de	1.0041463
124	0x3f7f9cc9	0.9984861
125	0x3f800e32	1.0004332
126	0x3f7fd989	0.9994131
127	0x3f805ade	1.002773

blocks.0.xlstm.proj_up.weight f4 [256, 64]
0	0x3c6688c5	0.014070694
1	0xbcaf8424	-0.021425314
2	0x3c83a1da	0.016068388
3	0xbda4d0f0	-0.08047664
4	0x3c43ab10	0.01194264
5	0xbe3e3350	-0.18574262
6	0xbce74180	-0.028229475
7	0xbd279651	-0.040914837
8	0xbda4d256	-0.08047931
9	0xbdb077c1	-0.08616591
10	0x3e0c6e3b	0.13713925
11	0xbb3cfa1d	-0.0028835603
12	0x3c690780	0.01422298
13	0xbe5fc735	-0.21853335
14	0x3c9a0334	0.018800355
15	0xbd196d5a	-0.0374578
16	0xbd1b6549	-0.03793839
17	0x3deb8632	0.11500205
18	0xbd40aef5	-0.047041852
19	0xbd17e619	-0.037084673
20	0xbcac5b60	-0.021039665
21	0xbdb61299	-0.08890266
22	0xbc3cc648	-0.011521883
23	0x3d208db6	0.039197646
24	0xbc900072	-0.017578337
25	0x3cd8fb50	0.026487023
26	0xbdbd635f	-0.09247469
27	0xbccaf220	-0.024773657
28	0xbd35977b	-0.044333916
29	0xbe1f0063	-0.15527491
30	0xbe2fe937	-0.17178808
31	0xbe371819	-0.17880286
32	0x3cdd3268	0.027001575
33	0xbc8956f0	-0.016765088
34	0x3dfa06c8	0.12208325
35	0xbdf32638	-0.11872524
36	0xbda698c4	-0.081346065
37	0x3cd1060d	0.02551558
38	0xbcbbdea3	-0.02293331
39	0xbddde5d6	-0.10834853
40	0x3d5c19e4	0.05373563
41	0x3d46bbda	0.048518993
42	0x3e0b55a5	0.1360689
43	0x3bee7816	0.007277499
44	0xbd8f5da1	-0.0700028
45	0x3b32b610	0.0027269162
46	0x3d466463	0.04843558
47	0xbb7d5275	-0.0038653885
48	0xbc30db88	-0.010794528
49	0x3dfa4ef3	0.122220896
50	0xbcf6414e	-0.030060437
51	0xbd7c6ce0	-0.06162727
52	0xbb3bff25	-0.0028686014
53	0x3d5faade	0.05460631
54	0x3dc17d43	0.0944772
55	0x3d383d9f	0.04498064
56	0xbda75bc6	-0.08171801
57	0xbe0fad8e	-0.1403105
58	0xbd3f8201	-0.04675484
59	0xbb1da6b7	-0.0024055669
60	0xbd5e8e39	-0.054334853
61	0x3d8675d0	0.0656544
62	0x3d33f594	0.043935373
63	0x3db33dff	0.08752059
64	0x3c693c6e	0.014235599
65	0xbce3682f	-0.02775964
66	0xbca4d330	-0.020120233
67	0x3db2aa97	0.08723944
68	0x3cb0ba34	0.021573164
69	0xbd2afe50	-0.041746438
70	0xbd1b143e	-0.0378611
71	0xbd9ecfb9	-0.07754464
72	0x3dea0719	0.11427135
73	0xbd4d71f5	-0.050157506
74	0xbe5d97bd	-0.21639915
75	0x3de67d61	0.11254383
76	0x3dc91d54	0.09820047
77	0x3d25071f	0.040289994
78	0x3bb9011f	0.0056458856
79	0xbb7f15ae	-0.0038922834
80	0xbdc830c1	-0.09774924
81	0xbdbc09da	-0.091815665
82	0x3c56a0cb	0.0130998595
83	0x3c2ca398	0.010537051
84	0xbd1608a6	-0.03662934
85	0x3c436c43	0.011927667
86	0x3c4189ec	0.011812668
87	0xbd91d484	-0.07120612
88	0xbc501b3e	-0.012701808
89	0xbca8488c	-0.020542406
90	0x3d9e0b1f	0.07716965
91	0x3c5a4ff7	0.013324729
92	0xbde26b6b	-0.110556446
93	0xbd9c07ff	-0.07618713
94	0x3d6e69d9	0.058206413
95	0x3d6da77a	0.058021046
96	0xbbd84442	-0.006599934
97	0xbc21dcce	-0.009879304
98	0x3c66a180	0.014076591
99	0xbde91ccb	-0.11382445
100	0xbe03b745	-0.1286288
101	0x3dc7a64f	0.09748518
102	0x3ca2e74d	0.019885683
103	0xbb2272b3	-0.0024787604
104	0xbcf57a7f	-0.029965637
105	0x3d6fd287	0.058550384
106	0xbd47d05f	-0.048782703
107	0xbdba9cde	-0.09111951
108	0xbd687519	-0.056752298
109	0xbe2b6530	-0.16737819
110	0xbe72fb53	-0.23728685
111	0x3d84ea4d	0.06490002
112	0xbccb7958	-0.024838135
113	0x3d45e93d	0.048318136
114	0xbd6267e7	-0.05527487
115	0x3d984e93	0.07436862
116	0x3d786f5f	0.060653087
117	0xbd685e67	-0.056730654
118	0x3d7047e3	0.058662307
119	0xbdbf6f7d	-0.093474366
120	0x3e1f1d06	0.15538415
121	0x3d98ad1c	0.07454893
122	0x3c3fc6ba	0.011705095
123	0x3d5ea3e4	0.054355517
124	0x3d9394db	0.07206126
125	0x3ccebef0	0.02523753
126	0xbd9c8a45	-0.0764356
127	0xbc8bf8f6	-0.017086487
128	0x3d805e78	0.062680185
129	0xbb80b51c	-0.00392784
130	0xbd9ec657	-0.07752674
131	0xbdc5f312	-0.096655026
132	0x3d8229b3	0.0635561
133	0x3d95250d	0.072824575
134	0xbda67163	-0.081270956
135	0x3e4210d2	0.18951729
136	0xbda71963	-0.08159139
137	0xbe2d9390	-0.16950822
138	0xbddc256e	-0.10749327
139	0xbc912e92	-0.017722402
140	0x3cf15fad	0.029464567
141	0xbc87c484	-0.016573198
142	0xbdb1ade6	-0.086757466
143	0xbd48a338	-0.048983783
144	0xbd1a98e5	-0.037743468
145	0x3ba08ab4	0.004899347
146	0x3d7d4733	0.06183548
147	0xbd37a8a0	-0.044838548
148	0x3e54af7f	0.20770071
149	0x3d708ef8	0.058730096
150	0xbc1de6f1	-0.00963758
151	0x3db2d160	0.08731341
152	0xbc8d4a47	-0.017247332
153	0xbd57fb56	-0.052729927
154	0x3d1c939c	0.03822671
155	0x3d85ca1d	0.06532691
156	0xbd2a4343	-0.041568052
157	0x3da46c3b	0.08028456
158	0xbd182ac0	-0.037150145
159	0x3d95ce8a	0.07314785
160	0x3d16ce9e	0.03681814
161	0xbd4ba55b	-0.049718242
162	0x3b03a99d	0.002009011
163	0xbdbddb56	-0.09270351
164	0x3d32bce4	0.04363717
165	0x3da9a911	0.082842
166	0x3d369985	0.04458
167	0x3d17d692	0.037069865
168	0x3e3027eb	0.17202727
169	0xbdf1c25f	-0.118046515
170	0xbda5f31a	-0.081030086
171	0x3d391e4d	0.045194913
172	0xbc9c4cd3	-0.019079601
173	0xbbf87036	-0.007581736
174	0x3db8425c	0.08997032
175	0x3d6bcd21	0.057568673
176	0xbe023385	-0.12714966
177	0x39557a84	0.00020358904
178	0x3daf0294	0.085454136
179	0xbcbc425c	-0.022980861
180	0x3d828c6e	0.06374441
181	0xba93f62a	-0.0011288573
182	0xbd167126	-0.036729
183	0x3ddc2c40	0.107506275
184	0x3c33efa4	0.010982428
185	0x3d817609	0.063213415
186	0xbdbdc67b	-0.09266373
187	0xbd384271	-0.04498524
188	0xbd9cdf87	-0.07659822
189	0x3dfad78e	0.12248145
190	0xbe50febd	-0.20409675
191	0x3d1034ff	0.03520679
192	0x3e392f4d	0.1808445
193	0x3df1d67d	0.118084885
194	0x3c89f107	0.016838564
195	0xbdc1e31b	-0.09467145
196	0x3c7c58bb	0.015402014
197	0xbcd91329	-0.026498394
198	0xbb9c80e9	-0.0047761095
199	0xbd169973	-0.036767434
200	0x3d7f8951	0.062386815
201	0xbbf9c784	-0.007622661
202	0x3d3ea0c0	0.046540022
203	0x3c641631	0.0139213065
204	0x3dbb3900	0.09141731
205	0x3dd401c0	0.10351896
206	0xbd9e4681	-0.07728291
207	0xbdadd4ce	-0.08487855
208	0xbd619a79	-0.055078957
209	0xbe065aee	-0.13120624
210	0x3ce190cd	0.027534867
211	0x3c22f9cf	0.009947254
212	0xbd0e849f	-0.034794446
213	0x3cb377b9	0.021907674
214	0xbd550fac	-0.0520169
215	0x3c56622b	0.0130849285
216	0xbdfc4148	-0.12317139
217	0x3bf3b6bd	0.0074375556
218	0x3e45162d	0.1924674
219	0x3bde0d4b	0.006776487
220	0x3c96e105	0.018417845
221	0xbe0a0d32	-0.13481596
222	0xbe4c86ad	-0.1997325
223	0xbd12ea09	-0.035867725
224	0x3c5a5c36	0.013327649
225	0xbe3d05c7	-0.18459235
226	0x3e0c32f6	0.13691315
227	0xbdb0f765	-0.08640937
228	0xbe179c20	-0.1480565
229	0xbd91d9df	-0.07121634
230	0x3e0e4dbf	0.13896845
231	0x3cd43098	0.025902078
232	0xbd806c23	-0.062706254
233	0xbca37556	-0.019953411
234	0x3db5ea05	0.08882526
235	0xbca5e6ae	-0.020251598
236	0xbe505dcc	-0.2034828
237	0x3cc08eb1	0.02350554
238	0x3e1708bf	0.1474943
239	0xbdb58d6a	-0.08864863
240	0xbcbfb5f5	-0.023402194
241	0x3dc807df	0.09767126
242	0xbb9ee965	-0.0048496
243	0x3ba567d9	0.00504778
244	0xbde92db1	-0.11385668
245	0xbd9ab090	-0.07553208
246	0x3ac1c72e	0.0014784092
247	0x3cc8ce58	0.024512455
248	0xbc03c8d8	-0.00804349
249	0x3c9bf575	0.019037941
250	0xbd8a6c46	-0.06758933
251	0x3d3e8e7e	0.04652261
252	0xbe2fefaa	-0.17181268
253	0xbdbeb63c	-0.09312102
254	0x3e42f5f0	0.1903913
255	0xbd34cb7f	-0.04413938

blocks.0.xlstm.q_proj.weight f4 [64, 2, 2]
0	0x3d01b070	0.031662405
1	0x3dbf1e9d	0.09332011
2	0x3c9d63ef	0.019212691
3	0xbd198997	-0.03748473
4	0xbd8e43ff	-0.06946563
5	0x3c1cdd6f	0.009574278
6	0xbcebee3f	-0.028800128
7	0xbd1e65c6	-0.038671277
8	0x3d05b135	0.0326397
9	0xbda76eb1	-0.081754096
10	0x3d3ca32b	0.046054047
11	0x3e32cf8a	0.17461982
12	0x3d91aa3c	0.07112548
13	0xbdc31da5	-0.095271386
14	0x3c887b03	0.016660219
15	0xbd9e731f	-0.07736801
16	0xbd0920e0	-0.033478618
17	0xbcc103ef	-0.023561446
18	0xbd617c4b	-0.055050176
19	0x3e32e17f	0.17468832
20	0xbd9efd38	-0.077631414
21	0x3dcf4f86	0.1012259
22	0x3de8ec1d	0.1137316
23	0xbda1ee5d	-0.07906792
24	0x3de91259	0.11380453
25	0x3c8bad6e	0.017050471
26	0xbd04a14e	-0.032380395
27	0x3d2890ba	0.041153647
28	0x3d02e6cf	0.031958397
29	0xbd961e23	-0.07329967
30	0x3daee8ca	0.08540495
31	0xbd25b1d6	-0.0404528
32	0x3d99862c	0.074962944
33	0x3dc452be	0.09586094
34	0x3de054ff	0.10953712
35	0xbe00225e	-0.1251311
36	0xbda88388	-0.082282126
37	0x3d8ba2d8	0.06818169
38	0x3bf4872f	0.007462404
39	0x3db4518c	0.08804616
40	0xbd261244	-0.040544763
41	0x3c2ff13b	0.010738666
42	0x3d4fb9b8	0.050714225
43	0x3c74bb15	0.014937182
44	0x3d5fdc33	0.054653358
45	0x3c2351b8	0.009968214
46	0xbacda3ed	-0.0015689112
47	0xbd787da0	-0.06066668
48	0x3d364d78	0.044507474
49	0xbced87b0	-0.028995365
50	0xbc299985	-0.010351543
51	0xbdce95a5	-0.10087136
52	0xbd1ca72a	-0.038245358
53	0x3d060abb	0.032725077
54	0xbd8e6f37	-0.06954806
55	0xbde1c5a8	-0.11024028
56	0x3c55a389	0.013039478
57	0xbcb1e2b0	-0.021714538
58	0xbd7bde5a	-0.061491348
59	0x3d35c5d0	0.0443781
60	0xbd2f7112	-0.04283244
61	0x3c90b123	0.01766259
62	0xbdc89971	-0.097948916
63	0x3e18c4d0	0.14918828
64	0x3d20eda0	0.039289117
65	0x3c75a454	0.014992792
66	0xbdeb636c	-0.114935726
67	0x3c036746	0.008020228
68	0xbe248fcf	-0.16070484
69	0x3d1c3ac7	0.038141992
70	0xbdcdf3ef	-0.10056292
71	0xbd332812	-0.043739386
72	0x3cae6fe4	0.021293588
73	0x3cfea65b	0.031085184
74	0x3dfa0910	0.1220876
75	0xbb18feaf	-0.0023345163
76	0x3dcff8e2	0.101548925
77	0xbc03836a	-0.008026937
78	0xbca6a409	-0.02034189
79	0x3e0a7735	0.13522036
80	0xbe5157fb	-0.20443718
81	0x3c15d39f	0.009144693
82	0x3d051e74	0.032499745
83	0x3d44fab9	0.04809067
84	0xbe2214c4	-0.15828234
85	0x3de33522	0.11094119
86	0x3d6cad3c	0.057782397
87	0x3db259fd	0.0870857
88	0x3d32f906	0.04369452
89	0x3bcec06c	0.0063095596
90	0xbe274693	-0.16335516
91	0x3d046fa6	0.03233304
92	0xbe107485	-0.14106949
93	0x3d2361c3	0.039888155
94	0xbd9213ef	-0.07132708
95	0x3dc2076c	0.09474072
96	0x3bf80e40	0.007570058
97	0x3bab03f9	0.0052189794
98	0x3d92f965	0.071764745
99	0x3d90d997	0.07072752
100	0x3da1c529	0.078989334
101	0xbbe9055a	-0.0071112337
102	0xbc174ef1	-0.00923513
103	0x3df62bf7	0.120201044
104	0xbe0b910c	-0.1362955
105	0x3cbf5907	0.023357881
106	0x3db7a8fd	0.08967779
107	0x3dc18951	0.09450019
108	0xbcc270de	-0.02373546
109	0xbbf29461	-0.007402942
110	0xbcc63492	-0.02419499
111	0x3e424b25	0.18973978
112	0x3de4cfca	0.11172445
113	0x3daeda6c	0.085377544
114	0xbd7c34c8	-0.061573774
115	0x3d85c0e0	0.065309286
116	0xbb49596d	-0.0030723468
117	0x3c4c944a	0.012486527
118	0xbca3e230	-0.020005316
119	0xbd735d44	-0.059415117
120	0x3d2b5df0	0.041837633
121	0xbb8ae3ff	-0.004238605
122	0x3cf2e9cb	0.029652497
123	0xbd0ab25c	-0.033861503
124	0xbd560cb3	-0.052258205
125	0xbd75d10f	-0.060013827
126	0xbd7f1389	-0.06227449
127	0x3d1b7df4	0.037961915
128	0xbdd0754f	-0.10178625
129	0x3d85e2a9	0.065373726
130	0xbddd314e	-0.1080042
131	0xbdee5ea9	-0.11639149
132	0x3dd3e7e1	0.10346962
133	0x3d1eada3	0.03873981
134	0x3dc875b0	0.09788072
135	0xbcef5991	-0.029217513
136	0xbe29666e	-0.1654298
137	0xbca2be39	-0.019866096
138	0xbd970009	-0.073730536
139	0xbe3b2959	-0.18277492
140	0x3ddb6d9c	0.10714266
141	0x3dde9952	0.10869087
142	0x3d0823b2	0.033237167
143	0x3d68581b	0.05672465
144	0x3c28bae1	0.010298462
145	0x3cd6eac9	0.026235001
146	0x3e114ea0	0.1419015
147	0xbcd4c655	-0.025973478
148	0x3bc42e2d	0.00598695
149	0x3d87f8dc	0.06639263
150	0xbd3112fd	-0.043231
151	0x3a30f2ae	0.0006750029
152	0x3df2f8b5	0.11863843
153	0xbc9aec9c	-0.018911652
154	0xbcff1654	-0.031138577
155	0xbcd9b62a	-0.02657612
156	0x3c24aac1	0.0100504765
157	0xbdc404fa	-0.09571262
158	0x3d630400	0.055423737
159	0x392a7f5e	0.00016259911
160	0xbdaee937	-0.08540576
161	0xbdd871dd	-0.10568593
162	0x3e0f8c13	0.14018278
163	0x3c859b49	0.016309397
164	0xbd808135	-0.06274644
165	0xbe0def75	-0.13860877
166	0xbddd6936	-0.10811083
167	0xbe499f17	-0.19689594
168	0xb9d16a0c	-0.00039942598
169	0x3db87b3c	0.0900788
170	0x3cc78ddd	0.024359638
171	0xbd355e24	-0.044279233
172	0x3d7b2d03	0.061322223
173	0x3e3f0b6d	0.18656702
174	0x3dc7b175	0.09750644
175	0x3d4eb258	0.05046305
176	0x3bc709e2	0.006074176
177	0x3e32156a	0.17390981
178	0x3d5f23b8	0.054477423
179	0x3c142d4d	0.009044004
180	0x3c5dc756	0.013536295
181	0x3de05f09	0.109556265
182	0x3d9d0937	0.07667773
183	0x3ccf9c13	0.025342977
184	0xbd0888b9	-0.033333514
185	0x3d8497cc	0.064742655
186	0x3d1c0e99	0.03809986
187	0xbd86c4dd	-0.065805174
188	0x3d635fc6	0.05551126
189	0xbd07241f	-0.032993432
190	0x3d912402	0.07086946
191	0x3d71b2a3	0.059008252
192	0xbbbb5cf9	-0.0057178703
193	0x3d6a9758	0.05727324
194	0x3ccd8fe9	0.025093036
195	0x3d3c47d4	0.04596694
196	0xbc21b490	-0.00986971
197	0xbd93d372	-0.07218064
198	0x3d31b7ba	0.043388106
199	0x3d145ea0	0.036223054
200	0x3d1fd67d	0.03902291
201	0x3d4dd8f9	0.05025575
202	0x3cd62d93	0.026144778
203	0xbd9366c1	-0.07197333
204	0x3db889b0	0.09010637
205	0x3c7e6371	0.015526638
206	0xbd881123	-0.066438936
207	0xbd38311f	-0.04496872
208	0xbdbf4f80	-0.09341335
209	0x3b54d6ad	0.003247659
210	0x3d06cad6	0.032908283
211	0xbda69d02	-0.081354156
212	0x3d7378b4	0.059441283
213	0xbe0c52a6	-0.13703403
214	0xbc924d0e	-0.017859008
215	0xbe0b6da2	-0.1361604
216	0xbd9481fd	-0.07251356
217	0x3d16be05	0.03680231
218	0xbe0153e8	-0.12629664
219	0xbb119074	-0.0022211345
220	0x3d3d0194	0.046144083
221	0xbdaf325c	-0.08554527
222	0xbd05ec96	-0.03269633
223	0xbc998648	-0.018740788
224	0xbcb204ff	-0.021730898
225	0xbb3ac4c8	-0.0028498638
226	0x3d9cec35	0.076622404
227	0x3cf20f86	0.029548418
228	0xbd8592a6	-0.065221116
229	0xbafebfaf	-0.0019435788
230	0x3d8d1b65	0.06889991
231	0xbd8b65a0	-0.06806493
232	0xba2a2e97	-0.0006491928
233	0xbdec937b	-0.11551567
234	0xbccf37c8	-0.025295153
235	0x3d4a9fa6	0.04946866
236	0xbc044c96	-0.0080749
237	0x3d724e2d	0.059156585
238	0xbd1bceb0	-0.03803891
239	0xbe251128	-0.16119826
240	0x3d82762d	0.063701965
241	0xbdb78b78	-0.089621484
242	0xbd8d5591	-0.06901086
243	0xbc8bf266	-0.017083358
244	0xbcc284bd	-0.023744935
245	0xbd0d9777	-0.034568276
246	0xbdd114cd	-0.102090456
247	0x3dab3a47	0.08360725
248	0x3e119022	0.14215139
249	0xbcec09f5	-0.028813342
250	0x3cd5ca5d	0.02609747
251	0xbc02f5be	-0.00799316
252	0xbe11378a	-0.14181343
253	0x3d9bdb71	0.076102145
254	0xbc8cb980	-0.017178297
255	0xbddd21e9	-0.107974835

blocks.0.xlstm.k_proj.weight f4 [64, 2, 2]
0	0x3db10651	0.08643783
1	0x3d4aad2e	0.049481563
2	0x3db56deb	0.08858856
3	0xbce10a2c	-0.02747067
4	0xbc97f022	-0.018547121
5	0x3cd25d8e	0.025679376
6	0xbc43db61	-0.0119541595
7	0xbdbf3479	-0.0933618
8	0xbd9f2483	-0.07770636
9	0xbd36af25	-0.044600625
10	0x3dff25f6	0.12458412
11	0xbd3d856d	-0.046269823
12	0xbc081f2d	-0.008308214
13	0x3cecd4b0	0.028910011
14	0xbc844e3e	-0.01615059
15	0xbde91eda	-0.113828376
16	0xbdccc142	-0.099977985
17	0xbbb90e30	-0.0056474432
18	0xbe11fab5	-0.14255793
19	0x3db680b8	0.0891127
20	0xbd93b7ce	-0.07212792
21	0x3d8725f2	0.06599034
22	0x3daf9311	0.085729726
23	0x3d18b911	0.037285868
24	0x3d8b9764	0.06815985
25	0x3cd1b5f8	0.025599465
26	0x3d9e8a02	0.07741167
27	0xbd4d74df	-0.050160285
28	0xbd8d08f0	-0.0688647
29	0xbcf62b38	-0.030049905
30	0x3d233b79	0.03985164
31	0xbd4b3fb5	-0.049621303
32	0x3ba5a335	0.005054856
33	0x3deda5b0	0.11603868
34	0xbd81a959	-0.063311286
35	0xbd88c8a9	-0.06678898
36	0x3d791ff3	0.060821485
37	0xbc596a46	-0.0132699665
38	0xbbd23165	-0.0064145797
39	0xbc89e377	-0.016832097
40	0xbd0f580a	-0.03499607
41	0xbc5576b1	-0.0130287865
42	0x3d9953c8	0.07486683
43	0xbc9e5066	-0.019325446
44	0xbdab3d43	-0.08361294
45	0xbd2d5dff	-0.04232597
46	0xbd04ff8f	-0.032470282
47	0xbcdf48ef	-0.027256457
48	0x3c2d7ea0	0.010589272
49	0xbd2efb30	-0.04272002
50	0xbd7c99ad	-0.061669994
51	0xbd30a9d9	-0.04313073
52	0xbe294e41	-0.16533758
53	0xbe3c5dc4	-0.18395144
54	0xbd470b20	-0.048594594
55	0xbd43854b	-0.04773454
56	0x3db0d815	0.086349644
57	0xbbb010c0	-0.0053730905
58	0xbe01bd4e	-0.1266987
59	0x3d39205f	0.045196887
60	0x3dbe1ed9	0.092832275
61	0x3dcf13e0	0.10111213
62	0x3dee083b	0.116226636
63	0xbde104ba	-0.1098723
64	0x3d6261d2	0.05526907
65	0x3d96598b	0.07341298
66	0xbda3510e	-0.07974444
67	0x3da1c54b	0.07898959
68	0xbd9882c8	-0.074468195
69	0xbe06fa48	-0.13181412
70	0xbb0d94e2	-0.0021603634
71	0x3cf68d8a	0.030096788
72	0x3b674d02	0.0035293703
73	0x3d71b129	0.059006844
74	0xbdde19a2	-0.10844733
75	0x3c972b78	0.018453345
76	0xbd359a94	-0.04433687
77	0x3c88cc26	0.016698908
78	0x3daf2d74	0.08553591
79	0xbd06e7d0	-0.032935917
80	0xbb03e605	-0.0020126116
81	0x3dd28404	0.10279086
82	0x3d918b43	0.0710664
83	0xbc96ad7f	-0.018393276
84	0x3c8edc02	0.017438892
85	0x39926c5b	0.0002792802
86	0xbe2bef23	-0.16790442
87	0xbdd49168	-0.103792965
88	0xbdc43623	-0.09580638
89	0x3c798fa1	0.015231998
90	0x3d0a60a0	0.033783555
91	0xbd515652	-0.051107712
92	0x3dc255cb	0.0948902
93	0x3c4a0dba	0.012332374
94	0xbd481ae5	-0.048853774
95	0x3df330cd	0.118745424
96	0xbcee60e2	-0.029098932
97	0x3c4aa176	0.012367597
98	0xbdc878d3	-0.097886704
99	0xbc43b6a3	-0.011945399
100	0x3d5633ee	0.052295618
101	0xbd40dd52	-0.047086067
102	0x3c6ae0a4	0.014335785
103	0xbd32cef9	-0.043654416
104	0xbd30261e	-0.0430051
105	0x3d35203d	0.044220198
106	0x3c0675f9	0.008206838
107	0xbe133d21	-0.14378788
108	0xbdda227b	-0.10651108
109	0x3cd305d5	0.025759617
110	0xbd91af0c	-0.07113466
111	0xbd221428	-0.039570004
112	0x3c9bac1b	0.019002965
113	0xbd84db27	-0.064871125
114	0x3dc84404	0.09778598
115	0xbd5ee1d0	-0.05441457
116	0x3d9a562d	0.07535968
117	0x3daa759e	0.08323215
118	0x3db4677d	0.08808801
119	0xbd8dbace	-0.06920396
120	0xbd90d624	-0.07072094
121	0x3b57c1dd	0.0032921948
122	0xbdac3919	-0.08409328
123	0xbe35ae18	-0.17742193
124	0x3e6cd913	0.23129682
125	0x3dadcd21	0.08486391
126	0xbd346977	-0.04404589
127	0x3bc9cfa1	0.0061587845
128	0xbd264c04	-0.040599838
129	0x3d275f4c	0.040862367
130	0x3e1949ed	0.14969607
131	0xbccb8b99	-0.024846839
132	0x3d013634	0.031545833
133	0x3d03918c	0.032121226
134	0x3d04c661	0.03241575
135	0x3cbf6afe	0.023366448
136	0xbdde22d8	-0.1084649
137	0x3d646bda	0.055766918
138	0x3d3e673f	0.046485182
139	0xbc90ebf3	-0.017690634
140	0xbb9e2415	-0.0048260787
141	0xbdedc378	-0.11609548
142	0x3d84f39c	0.06491777
143	0xbe094fb7	-0.13409315
144	0xbdea5c55	-0.11443392
145	0xbcb1d256	-0.021706741
146	0xbd7ef03d	-0.062240828
147	0x3cbc7845	0.023006568
148	0x3d9b718e	0.07590018
149	0xbc1d718b	-0.00960959
150	0x3dfd9dd0	0.12383616
151	0xbb32140d	-0.0027172596
152	0x3cf58b67	0.029973699
153	0xbe130244	-0.14356333
154	0xbd8c81e9	-0.06860716
155	0x3da636a9	0.08115894
156	0x3dce26f7	0.10066026
157	0xbdeb9101	-0.11502267
158	0x3d07cfc3	0.03315712
159	0xbd61aeb6	-0.055098258
160	0x3c1620d8	0.009163104
161	0xbd8c6412	-0.068550244
162	0x3b747c0e	0.0037305388
163	0x3a519a8d	0.0007995747
164	0xbd819b09	-0.06328399
165	0x3db0e543	0.08637478
166	0xbc409d79	-0.011756294
167	0x391fabcb	0.0001522742
168	0x3ba6f4d6	0.0050951047
169	0xbd8799a0	-0.066210985
170	0x3da0248a	0.07819469
171	0xbd05f724	-0.032706395
172	0x3e01c1a8	0.1267153
173	0x3cd48af6	0.025945168
174	0x3dbc474f	0.091932885
175	0xbced3c38	-0.028959379
176	0x3d7ae3f6	0.061252557
177	0xbd0a2879	-0.033730004
178	0x3d1a02b0	0.03760022
179	0xbe0c3760	-0.13692999
180	0xbd98e2dd	-0.07465146
181	0x3db19ed3	0.086728714
182	0x3da2d4ed	0.079507686
183	0xbda70abf	-0.081563465
184	0xbd1b672a	-0.03794018
185	0xbd87a8b4	-0.066239744
186	0xbe23918b	-0.15973489
187	0x3cef2b35	0.029195407
188	0x3b35b063	0.0027723543
189	0xbc6ad2df	-0.014332502
190	0x3d97e99b	0.074176036
191	0xbdfb8c20	-0.12282586
192	0xbe28e651	-0.16494109
193	0xbe25e462	-0.16200402
194	0xbde5af4d	-0.112150766
195	0xbd0594ec	-0.032612726
196	0xbdaecc66	-0.0853508
197	0x3db094ed	0.08622155
198	0x3dc6ada4	0.09701088
199	0x3d89edcf	0.067348115
200	0xbca1ee4f	-0.019766955
201	0xbdba3979	-0.09092993
202	0xbb2be2ce	-0.0026227715
203	0x3c33e92b	0.010980885
204	0xbcddc7fc	-0.027072899
205	0x3dd2d294	0.10294071
206	0xbd0863b0	-0.033298194
207	0xbd731d5f	-0.059354182
208	0xbd44a0de	-0.048004977
209	0x3c88add7	0.016684456
210	0xbc0c76aa	-0.008573214
211	0x3e1c6737	0.15273748
212	0x3de1bb59	0.11022062
213	0xbd4c8e3d	-0.049940336
214	0xbc708560	-0.014680237
215	0xbd4062fd	-0.046969403
216	0x3c111c06	0.008856779
217	0x3dbe6b1c	0.09297773
218	0x3d0c0838	0.034187526
219	0x3c9cf7a2	0.01916105
220	0xbc7d059b	-0.015443231
221	0x3de96f0a	0.11398132
222	0xbd22ab93	-0.039714407
223	0xbde23646	-0.11045508
224	0x3c7b4ef0	0.015338644
225	0x3d53396d	0.051568437
226	0x3c80710f	0.01567891
227	0x3ca068ec	0.01958128
228	0x3d13e630	0.036108196
229	0x3e2d3d94	0.16918021
230	0xbddc2559	-0.10749311
231	0x3df63243	0.120213054
232	0x3da4beeb	0.08044227
233	0x3d8cb9b5	0.06871358
234	0xbe137c0f	-0.14402793
235	0x3de2de50	0.11077559
236	0xbe1dd400	-0.15412903
237	0x3d3b83f5	0.04578014
238	0x3d66711b	0.05626021
239	0xbcaf9142	-0.021431569
240	0x3d040c84	0.0322385
241	0xbd24efaf	-0.040267643
242	0xbd3fe511	-0.046849314
243	0x3d88e164	0.06683615
244	0xbd2a499e	-0.041574113
245	0xbdeb574e	-0.114912614
246	0xbd3eacf2	-0.046551652
247	0x3e00219a	0.12512818
248	0xbe7f9889	-0.24960531
249	0xbd0ae8ed	-0.03391354
250	0x3d7ffbee	0.06249612
251	0x3db53582	0.088480964
252	0xbdcea7ab	-0.10090574
253	0xbe0bd700	-0.13656235
254	0x3a26ba4d	0.00063601584
255	0xbd2f470d	-0.04279237

blocks.0.xlstm.v_proj.weight f4 [64, 2, 2]
0	0x3cae2dc1	0.021262052
1	0xbd028952	-0.03186924
2	0x3d067e92	0.03283555
3	0xbd998a69	-0.07497103
4	0x3d9c04c2	0.07618095
5	0x3d723e42	0.059141405
6	0x3d9fa7ea	0.07795699
7	0xbcfe1a1a	-0.031018306
8	0xbcd56b92	-0.02605227
9	0xbd231e83	-0.03982402
10	0x3da895ee	0.08231722
11	0x3dc8852f	0.09791028
12	0xbd0224d0	-0.03177339
13	0xbd8e103d	-0.06936691
14	0x3ccee601	0.025256159
15	0xbce179c2	-0.027523879
16	0xbd283614	-0.041067198
17	0xbd30df86	-0.04318192
18	0xbd07957e	-0.03310155
19	0x3ddef98f	0.10887443
20	0xbbc044ce	-0.005867577
21	0xbc1a092b	-0.0094016
22	0xbdcaf4a1	-0.099099405
23	0xbcdb955f	-0.026804624
24	0xbb8f6c8e	-0.0043769544
25	0x39502aef	0.0001985242
26	0xbc48ee44	-0.012263838
27	0x3d90d70a	0.070722654
28	0xbe25e9c1	-0.16202451
29	0xbd3cf8ea	-0.04613582
30	0x3db628cb	0.088944994
31	0x3e1a33a9	0.1505877
32	0x3d2d53ef	0.042316373
33	0x3df45407	0.119300894
34	0xbe2779c0	-0.16355038
35	0x3cf7d80f	0.030254392
36	0x3d016bdb	0.031597
37	0x3dce5ab0	0.10075891
38	0x3c999f41	0.018752696
39	0xbd5a91f8	-0.053361863
40	0x3de3a818	0.11116046
41	0xbda66cca	-0.081262186
42	0x3d3118d5	0.043236572
43	0x39a0f022	0.0003069649
44	0xbc9842d3	-0.018586552
45	0x3beab4ca	0.007162665
46	0xbcf0233e	-0.02931368
47	0x3dfd4e09	0.123684
48	0x3dbf7e8f	0.09350311
49	0x3d2e666c	0.042578146
50	0xbd1244fc	-0.03571032
51	0x3cde7f29	0.027160244
52	0x3c1de2c6	0.0096365865
53	0x3d48e931	0.049050514
54	0xbd783d5c	-0.06060539
55	0x3b9e8e14	0.0048387144
56	0x3dc325f8	0.09528726
57	0x3d298822	0.041389592
58	0x3d0df640	0.03465867
59	0xbbf232d4	-0.007391313
60	0x3d1c7814	0.038200453
61	0x3dd1d3c9	0.10245473
62	0xbe12f600	-0.14351654
63	0xbe14b448	-0.14521897
64	0x3d97e964	0.074175626
65	0x3dd10e8a	0.10207851
66	0x3e1b15c0	0.15145016
67	0xbd2a1b56	-0.041529976
68	0x3d005fd2	0.03134138
69	0x3c8b689a	0.017017651
70	0x3c8330ac	0.01601442
71	0xbdd39023	-0.10330226
72	0xbda2c70e	-0.07948123
73	0xbd93dc2e	-0.0721973
74	0xbdd4ca07	-0.10390096
75	0xbcc3b15a	-0.023888279
76	0x3d9bac98	0.07601279
77	0x3d91b430	0.07114446
78	0x3d303055	0.043014843
79	0x3e084b55	0.13309987
80	0xbdb872c6	-0.09006266
81	0x3d80467a	0.06263442
82	0xbd61fb15	-0.05517109
83	0xbc2a0a62	-0.010378452
84	0x3c9b0198	0.018921658
85	0xbd74c72a	-0.05976025
86	0xbd1b654b	-0.037938397
87	0x3e236e87	0.15960132
88	0xbc33495d	-0.010942784
89	0xbd067100	-0.03282261
90	0xbaa3f1cc	-0.0012507974
91	0xbcfc5ea3	-0.030806845
92	0x3c983277	0.018578751
93	0xbdd04295	-0.101689495
94	0xbad5c992	-0.0016310683
95	0xbd607a39	-0.05480406
96	0x3d69648e	0.056980662
97	0x3df658ad	0.12028632
98	0x3d670f29	0.056410942
99	0xbd71bc4a	-0.059017457
100	0x3cd22cb2	0.025656078
101	0xbd763ac4	-0.060114637
102	0x3d8e1e36	0.06939356
103	0xbd84fd76	-0.06493656
104	0x3d957658	0.07297963
105	0xbc6795b6	-0.014134815
106	0x3cdd74dc	0.027033262
107	0xbc742354	-0.014901001
108	0xbc307180	-0.010769248
109	0xbdcb14f8	-0.09916109
110	0x3c984f12	0.018592391
111	0xbdba208f	-0.09088241
112	0xbd10a58a	-0.03531412
113	0xbd07d5a0	-0.033162713
114	0x3dd673b9	0.10471291
115	0xbd87019a	-0.06592102
116	0xbcbb5e46	-0.022872102
117	0x3d5daa35	0.0541174
118	0x3e343f89	0.17602362
119	0xbcfcc614	-0.03085617
120	0x3d55be50	0.05218345
121	0xbd198cab	-0.037487667
122	0xbdc848fe	-0.09779547
123	0x3d91a175	0.071108736
124	0x3d6fc02d	0.058532882
125	0x3e1c6f2e	0.15276787
126	0xbd85644b	-0.0651327
127	0x3dd2125c	0.10257408
128	0xbd1404e5	-0.03613748
129	0xbdc36c0f	-0.09542095
130	0xbcedd4af	-0.02903208
131	0xbd0d873c	-0.034552798
132	0x3dcc813b	0.09985586
133	0xbd9bdbc3	-0.076102756
134	0xbb962c11	-0.00458289
135	0x3dd410d9	0.10354776
136	0xbd562b59	-0.052287433
137	0xbd76a4dc	-0.060215816
138	0x3da5532f	0.08072507
139	0xbd3dc001	-0.046325687
140	0xbe00dd10	-0.12584329
141	0xbd4ea808	-0.050453216
142	0xbdd61de9	-0.10454924
143	0xbd6c0838	-0.057625026
144	0x3ddacf4e	0.106840715
145	0xbd88d478	-0.0668115
146	0x3c48cd35	0.012255956
147	0xbda47995	-0.080310024
148	0x3ce722d3	0.028214848
149	0xbe0274cf	-0.12739871
150	0x3d5ebc3d	0.054378737
151	0x3dd239e5	0.10264949
152	0xbd90de78	-0.070736825
153	0x3ca584ff	0.020205019
154	0x3d062dd4	0.03275855
155	0x3d52057e	0.05127477
156	0xbd022710	-0.031775534
157	0xbdf8e1cc	-0.12152442
158	0x3d173f4f	0.03692561
159	0xbd8a47f2	-0.06752004
160	0x3da2988d	0.07939253
161	0x3df65e42	0.12029697
162	0x3e0ec82a	0.13943544
163	0x3c192a9f	0.009348541
164	0xbd86f643	-0.065899394
165	0xbd673707	-0.056448963
166	0x3ca7d355	0.020486513
167	0x3dc73e61	0.09728695
168	0xbd4dd15f	-0.0502485
169	0x3dc87a0e	0.09788905
170	0xbde21034	-0.11038247
171	0xbcbbcaa9	-0.022923784
172	0xbe098e59	-0.13433208
173	0xbd29049a	-0.041264154
174	0x3d34f079	0.044174645
175	0xbdc7f54d	-0.09763584
176	0xbdbf86ee	-0.09351908
177	0xbda6f50d	-0.081522085
178	0xbda53c34	-0.080681235
179	0x3d7a7b59	0.06115279
180	0xbe015d8c	-0.12633342
181	0x3e1a8374	0.15089208
182	0x3de796e6	0.113080785
183	0xbd98a1de	-0.07452749
184	0xbc93ffe4	-0.018066354
185	0x3e12ecf8	0.14348209
186	0x3da80abb	0.08205172
187	0xbd2296a3	-0.03969444
188	0xbcb63fcd	-0.02224722
189	0xbcada4ef	-0.02119681
190	0xbcfbe630	-0.03074941
191	0xbd4317f4	-0.047630265
192	0xbd86c6ff	-0.06580924
193	0x3d6cb912	0.057793684
194	0x3c857d31	0.016295047
195	0x3c7da0f6	0.015480271
196	0xbd9e7b57	-0.07738369
197	0xbe4a9771	-0.19784333
198	0xbc917aa3	-0.017758673
199	0xbd5f18d4	-0.054467037
200	0x3cfa500e	0.030555751
201	0xbd1e637e	-0.038669102
202	0xbdb25e67	-0.08709412
203	0xbdc4eddb	-0.0961568
204	0xbcfb0326	-0.03064115
205	0xbcf73108	-0.030174747
206	0xbe173e2a	-0.14769807
207	0x3ba2216c	0.004947832
208	0x3d4cd65f	0.050009128
209	0x3ccb45d4	0.02481357
210	0xbd8a0dc2	-0.06740905
211	0xbdb670f8	-0.08908266
212	0x3d8b48de	0.06801008
213	0x3dc8c8e1	0.098039396
214	0xbe1e048b	-0.1543142
215	0xbe3f1913	-0.18661909
216	0x3dc81674	0.097699076
217	0xbd438b18	-0.047740072
218	0x3cd521b6	0.026017051
219	0xbeabdf3a	-0.33568746
220	0x3ccd1915	0.025036374
221	0xbdc150f8	-0.09439272
222	0xbc7e5876	-0.01552402
223	0x3b750471	0.003738668
224	0xbdf5b080	-0.11996555
225	0xbd3ec8d4	-0.046578243
226	0xbb575e82	-0.0032862728
227	0xbd5d0c77	-0.053966966
228	0x3d79b642	0.06096483
229	0xbdbbb355	-0.09165064
230	0x3d155a04	0.0364628
231	0x3d303389	0.043017898
232	0x3cde5412	0.027139697
233	0xbd56b79c	-0.052421197
234	0x3dce73c2	0.10080673
235	0xbc635aba	-0.013876611
236	0xbd141cf0	-0.03616041
237	0xb9255631	-0.00015767735
238	0x3d84e3c4	0.06488755
239	0x3daa72bb	0.08322664
240	0x3c03c102	0.008041622
241	0x3db584a8	0.08863193
242	0xbd7edfda	-0.0622252
243	0xbd7c676c	-0.06162207
244	0xbdd1a8d0	-0.102372766
245	0x3c82bad9	0.015958237
246	0xbc5c7cf5	-0.013457526
247	0x3defe90d	0.11714373
248	0xbd6f56d3	-0.05843241
249	0x3db5df85	0.088805236
250	0x3d9d32b6	0.07675688
251	0xbd2db6a5	-0.04241051
252	0x3d5a4185	0.05328514
253	0x3bef01cf	0.007293917
254	0x3dfe9992	0.12431635
255	0xbd888ac1	-0.0666709

blocks.0.xlstm.conv1d.conv.weight f4 [128, 1, 4]
0	0x3ed7b13d	0.4212741
1	0xbd0aa856	-0.033851944
2	0xbe90a77b	-0.28252777
3	0x3e18f6d7	0.14937912
4	0x3e35ca32	0.17752913
5	0xbea88b24	-0.32918656
6	0x3e947fc0	0.29003716
7	0x3e4367e9	0.19082607
8	0xbd598bbb	-0.053111773
9	0xbee1f270	-0.44130278
10	0x3edef764	0.4354812
11	0x3dba9a3c	0.09111449
12	0x3ccfcfca	0.025367636
13	0x3dd6b3c4	0.10483506
14	0x3dc42807	0.09577947
15	0xbb6ed780	-0.0036444366
16	0xbea1a612	-0.31572014
17	0xbd953713	-0.07285895
18	0xbe80bcdf	-0.25144097
19	0xbe915aa6	-0.28389472
20	0x3ea0a1f0	0.31373549
21	0x3d58dafb	0.05294321
22	0x3ebdc6ec	0.37065828
23	0x3e5748e7	0.21023904
24	0x3dd18183	0.102297805
25	0x3eea428d	0.457539
26	0x3ed5cd21	0.41758063
27	0xbe515036	-0.20440754
28	0x3dce6d28	0.10079414
29	0x3ebc6a23	0.36799726
30	0xbe901a34	-0.2814499
31	0xbe46ca07	-0.19413005
32	0x3eafa589	0.3430598
33	0xbde37723	-0.11106708
34	0xbe4c02ec	-0.1992299
35	0xbed10c5d	-0.40829745
36	0xbc34d5ff	-0.011037349
37	0xbe613000	-0.21990967
38	0xbd201361	-0.03908098
39	0xbe1aabcd	-0.151046
40	0xbdb58a08	-0.08864218
41	0x3e967ae6	0.2939064
42	0x3d82c969	0.06386072
43	0xbe3e2895	-0.18570168
44	0xbe97056d	-0.29496327
45	0x3ec99334	0.3937012
46	0xbe979fa2	-0.29613978
47	0xbebace4d	-0.3648552
48	0xbe89c9cc	-0.2691177
49	0x3e904464	0.28177178
50	0xbe5b660d	-0.21425648
51	0x3ea90fe9	0.3301995
52	0x3edd0505	0.43167892
53	0xbe026512	-0.12733868
54	0xbe1bb420	-0.15205431
55	0xbe250858	-0.16116464
56	0x3e6cd77f	0.2312908
57	0x3eb59135	0.35462347
58	0xbdb28a81	-0.08717824
59	0x3e31c08a	0.17358604
60	0xbebee584	-0.37284482
61	0xbe170762	-0.1474891
62	0x3e840484	0.25784695
63	0x3ebd4409	0.3696597
64	0x3e974ad6	0.29549283
65	0x3dd3497e	0.10316752
66	0xbe013223	-0.12616782
67	0xbecfc580	-0.40580368
68	0x3ef18b34	0.47176516
69	0xbeff9537	-0.4991853
70	0x3edd0dda	0.4317463
71	0x3eb5a6ee	0.3547892
72	0x3cbbff7e	0.022948977
73	0xbd0aea87	-0.03391507
74	0x3e68a583	0.22719388
75	0xbe8e6c03	-0.2781678
76	0x3e1afbaa	0.15135065
77	0xbbd8f9f4	-0.0066215936
78	0xbe136687	-0.1439458
79	0x3e8602af	0.26173922
80	0x3e0831e6	0.13300285
81	0x3ed7cca1	0.42148307
82	0x3c864b92	0.016393457
83	0x3d6b1a50	0.05739814
84	0x3f000573	0.50008315
85	0x3ef2a752	0.4739328
86	0xbe3a1875	-0.18173392
87	0xbee3c7e9	-0.44488457
88	0xbe8b0e44	-0.2715932
89	0xbeb587b8	-0.35455108
90	0xbd08181b	-0.033226114
91	0xbece5b66	-0.40304106
92	0xbcabffb5	-0.020995954
93	0x3da94efa	0.08267017
94	0x3d573a2d	0.052545715
95	0x3ebd7cee	0.37009376
96	0x3b216cc6	0.0024631484
97	0x3edc93f5	0.43081632
98	0xbe1c05d3	-0.15236597
99	0xbe7e21d5	-0.24817593
100	0xbeb11afc	-0.345909
101	0xbe9df15a	-0.308482
102	0xbe0ca278	-0.13733852
103	0x3d822408	0.06354529
104	0x3e897df1	0.26853898
105	0xbed4dcda	-0.41574746
106	0x3e2d0aac	0.16898602
107	0xbd0a965d	-0.033834804
108	0xbe61ff17	-0.22069965
109	0xbb1b13ef	-0.0023663004
110	0x3e20d893	0.15707617
111	0xbe1521c5	-0.14563663
112	0xbe6fbb63	-0.23411326
113	0x3e6ac54f	0.2292683
114	0x3bbda4ab	0.005787452
115	0x3d4ae522	0.049534924
116	0x3e95575d	0.29168215
117	0xbda9fe3f	-0.08300447
118	0x3e524186	0.20532808
119	0xbd8fda62	-0.07024075
120	0xbe21fdbc	-0.15819448
121	0xbd080b12	-0.033213682
122	0x3e5450f2	0.20734003
123	0xbe0b084b	-0.13577382
124	0x3d961038	0.07327312
125	0x3e44f819	0.19235267
126	0xbe99d1b7	-0.30042812
127	0x3e460360	0.19337225
128	0x3e0af05e	0.13568255
129	0xbec0453d	-0.37552825
130	0x3e096511	0.1341746
131	0xbc6aa1b9	-0.014320784
132	0xbedbe34b	-0.42946848
133	0xbdc1d734	-0.09464875
134	0x3ce9226f	0.028458802
135	0x3e9c4316	0.30519933
136	0x3ed3e547	0.41385862
137	0xbee8b954	-0.45453894
138	0xbee3fdd0	-0.4452958
139	0x3ecdd924	0.40204728
140	0xbefe1783	-0.49627313
141	0xbef45d7e	-0.4772758
142	0x3ead6276	0.33864182
143	0x3eaeddd5	0.3415362
144	0x3dd28ca3	0.102807306
145	0xbe9c2d4a	-0.30503303
146	0xbebd1bb9	-0.36935213
147	0x3ea36696	0.31914204
148	0xbc896c29	-0.016775208
149	0x3ee21278	0.44154716
150	0xbe8def69	-0.27721718
151	0x3edd1edc	0.43187606
152	0x3c9a1152	0.018807087
153	0x3d5a5aea	0.05330936
154	0xbed09a19	-0.40742567
155	0xbebfb305	-0.3744127
156	0x3dbc7a19	0.09202976
157	0xbd178af3	-0.036997747
158	0x3e1ac2b1	0.15113331
159	0x3eaac750	0.33355188
160	0x3dcf8aa0	0.101338625
161	0xbdf193de	-0.117957816
162	0x3dc66840	0.09687853
163	0x3ecbabe7	0.3977959
164	0xbd5ed2d3	-0.054400276
165	0xbeb79534	-0.3585602
166	0x3ec442b4	0.3833214
167	0xbddd0b78	-0.10793203
168	0x3d5d4863	0.05402411
169	0xbe9c8261	-0.3056822
170	0x3e6e346f	0.2326219
171	0x3e197913	0.14987592
172	0xbe5487f6	-0.2075499
173	0x3dec84c5	0.11548761
174	0x3e83eb65	0.2576553
175	0xbd44f7d5	-0.048087914
176	0xbe945327	-0.2896969
177	0x3cceb1be	0.025231238
178	0xbd2ab686	-0.041677974
179	0xbeaa8fb1	-0.33312753
180	0x3e2794dd	0.1636538
181	0x3d01bea0	0.031675935
182	0xbef8a4c9	-0.4856322
183	0xbe76c14b	-0.24097173
184	0xbe19ad51	-0.15007521
185	0xbeaacf6d	-0.33361378
186	0x3e454e65	0.19268186
187	0x3e234dee	0.15947697
188	0xbea91c36	-0.33029336
189	0x3d95f035	0.073212065
190	0x3e0875b1	0.13326146
191	0xbee51f62	-0.44750506
192	0x3e7d9703	0.24764638
193	0x3cd8a844	0.026447423
194	0xbebca975	-0.36848035
195	0xbe4a492e	-0.19754478
196	0x3e04cf76	0.12969765
197	0xbed9a3e3	-0.42507848
198	0xbe9b8249	-0.30372837
199	0x3e4ea3ef	0.20179723
200	0x3d91c207	0.07117086
201	0xbe905f85	-0.28197876
202	0x3e7f16cc	0.2491104
203	0x3eae576a	0.34051067
204	0xbd7e4925	-0.062081475
205	0x3eebb5da	0.4603718
206	0x3e902ea0	0.28160572
207	0xbecbacd9	-0.3978031
208	0x3cf5f158	0.030022308
209	0x3c9e630f	0.019334344
210	0x3e849cb2	0.259008
211	0xbe8b80cf	-0.2724671
212	0x3eba7c4f	0.36422965
213	0x3d9f4165	0.07776145
214	0xbed2b433	-0.41153106
215	0x3e935109	0.28772762
216	0xbe464002	-0.19360355
217	0x3ec7b27b	0.39003357
218	0xbe13ab31	-0.14420773
219	0x3d4d9358	0.050189346
220	0xbe9724e1	-0.29520324
221	0x3ec3e601	0.38261417
222	0x3e7cf0f5	0.24701293
223	0xbe483145	-0.19550045
224	0x3d9b2d81	0.075770386
225	0x3db5d7a1	0.088790186
226	0x3ea94b11	0.33065084
227	0xbe3c9581	-0.18416406
228	0x3e16bc35	0.14720233
229	0xbeb5d1e5	-0.355117
230	0x3eacefd9	0.3377674
231	0x3ecd3b39	0.40084246
232	0x3ef9c703	0.48784646
233	0x3ea8fe19	0.3300636
234	0x3e4c1446	0.19929609
235	0xbee37dda	-0.44431955
236	0xbdc0527c	-0.09390733
237	0xbda65b05	-0.08122829
238	0x3dde0d51	0.10842384
239	0x3e829622	0.25505167
240	0x3c7f9f26	0.015601909
241	0x3e8567dd	0.26055804
242	0xbe53fbab	-0.20701472
243	0x3ec33fb2	0.38134533
244	0x3e76293f	0.24039172
245	0x3eb680e2	0.35645205
246	0xbead442f	-0.33841082
247	0x3cb6df1e	0.022323187
248	0xbef07428	-0.4696362
249	0xbeaf1876	-0.3419835
250	0xbe822030	-0.25415182
251	0xbeebca82	-0.4605294
252	0xbcaa1d46	-0.020765912
253	0x3ef6640e	0.4812321
254	0x3eddc117	0.43311378
255	0x3ec891e7	0.39173815

blocks.0.xlstm.conv1d.conv.bias f4 [128]
0	0xbe253cb1	-0.16136433
1	0x3ed9272f	0.42412707
2	0x3d86b068	0.065766156
3	0xbb9bf335	-0.004759217
4	0x3d98052f	0.07422864
5	0x3e478203	0.1948319
6	0xbdff8506	-0.12476544
7	0xbef19533	-0.47184142
8	0xbd8d6ba9	-0.069053
9	0xbeef5072	-0.46741062
10	0x3e268c98	0.1626457
11	0x3c92dedd	0.017928535
12	0xbeb51188	-0.35364938
13	0xbe82c7e7	-0.25543138
14	0xbe53b23c	-0.2067346
15	0xbbca8f8d	-0.0061816634
16	0x3e95c1c1	0.29249385
17	0xbed1462f	-0.40873858
18	0xbccd60c0	-0.025070548
19	0xbe3904e3	-0.1806827
20	0x3ea85dae	0.32883972
21	0x3ea1d388	0.31606698
22	0xbef55b67	-0.47921297
23	0xbeec2f93	-0.46130046
24	0x3ba92992	0.0051624263
25	0xbe85d326	-0.26137656
26	0xbc9e1ab2	-0.019299839
27	0xbde74265	-0.112919606
28	0xbe099355	-0.13435109
29	0x3eb76e25	0.3582622
30	0x3e0c2d09	0.13689055
31	0x3eba8b8e	0.36434597
32	0x3eb96ce7	0.36215898
33	0xbea90834	-0.3301407
34	0x3da62dcb	0.08114203
35	0x3e9d76cd	0.307547
36	0x3ec02ade	0.37532705
37	0xbd7a6063	-0.061127078
38	0x3e7c5dc7	0.24645148
39	0xbee1de49	-0.44114903
40	0x3eeb58e5	0.4596626
41	0xbec064ab	-0.37576804
42	0x3eeb517d	0.45960608
43	0x3dbbfe41	0.091793545
44	0xbeb7e859	-0.35919455
45	0x3edbff95	0.4296843
46	0x3ed8ba54	0.42329657
47	0x3d7a7db5	0.06115504
48	0xbe5cf190	-0.21576524
49	0xbe96854a	-0.29398566
50	0x3e9b15ca	0.3029006
51	0x3e72db19	0.23716392
52	0x3ee31be2	0.4435721
53	0x3ed04141	0.40674785
54	0xbef26cfe	-0.4734878
55	0x3c55beec	0.013046008
56	0x3e09e40e	0.13465902
57	0x3e338030	0.17529368
58	0xbe02f1b5	-0.12787516
59	0xbefd78b5	-0.49506155
60	0x3ead4488	0.33841348
61	0x3e44fa6c	0.19236153
62	0xbe787dad	-0.24266692
63	0x3ebd2b66	0.36947173
64	0x3ede42e8	0.4341042
65	0xbf005ae0	-0.50138664
66	0x3ebb077e	0.36529154
67	0x3e94cd72	0.29062992
68	0xbed53024	-0.4163829
69	0xbe0711d4	-0.13190395
70	0x3da65eca	0.08123548
71	0xbdf0abd2	-0.11751522
72	0xbd1e11de	-0.03859126
73	0x3ee18852	0.44049317
74	0x3ed8551d	0.42252436
75	0xbc29836b	-0.010346274
76	0x3e855e93	0.26048717
77	0xba1dceed	-0.0006019909
78	0xbe371ed5	-0.17882855
79	0xbe9bfb0e	-0.30464977
80	0x3dbe8f13	0.09304633
81	0x3e8be705	0.2732469
82	0xbd752438	-0.059848994
83	0x3da09348	0.07840592
84	0x3c3e7f6d	0.01162706
85	0xbe838a83	-0.25691614
86	0xbe26c044	-0.16284281
87	0x3de02c9a	0.10946007
88	0x3ef78bfb	0.48348984
89	0xbeeec51b	-0.46634755
90	0x3ed4aef9	0.41539744
91	0xbeb1ec01	-0.3475037
92	0xbdc54167	-0.09631615
93	0x3eef0aa4	0.46687806
94	0x3ef333ff	0.47500607
95	0xbe2d144b	-0.16902272
96	0x3de466d1	0.11152423
97	0x3d208aac	0.039194748
98	0xbd19827a	-0.037477948
99	0xbd26b713	-0.040701937
100	0xbe45f290	-0.19330812
101	0x3e28031a	0.16407433
102	0x3ed94943	0.42438707
103	0xbe27e801	-0.16397096
104	0xbd113ab6	-0.03545638
105	0xbcf7068d	-0.03015449
106	0x3eecb202	0.4622956
107	0x3ee75ab8	0.451864
108	0x3e6339ad	0.2218997
109	0xbe82ade7	-0.25523302
110	0xbef5cfe1	-0.48010162
111	0xbe1d7715	-0.15377457
112	0xbdf8fce6	-0.121576115
113	0x3eb072cf	0.34462592
114	0x3de81f21	0.11334062
115	0x3e7b37d4	0.24533015
116	0xbecc1b07	-0.3986437
117	0xbe0b0efe	-0.13579938
118	0xbec00128	-0.37500882
119	0xbe555b2c	-0.2083556
120	0x3d3ee497	0.04660472
121	0xbe603f02	-0.21899036
122	0xbe6a195a	-0.22861233
123	0x3dbc4330	0.091925025
124	0xbe0019e9	-0.12509884
125	0x3df2635a	0.11835356
126	0xbe957443	-0.29190263
127	0xbdad601f	-0.08465599

blocks.0.xlstm.mlstm_cell.igate.weight f4 [2, 384]
0	0xbb105f22	-0.002202936
1	0x3b11c61a	0.0022243322
2	0x3adf7a8a	0.0017050069
3	0x3aef3a87	0.0018251695
4	0xba95ccf6	-0.0011428881
5	0xbad19de0	-0.0015992485
6	0xbb152d8f	-0.002276275
7	0xbb14258a	-0.0022605383
8	0xbb3016bd	-0.0026869022
9	0x3b04670d	0.0020203025
10	0x3af469f3	0.0018647298
11	0xbb047a8a	-0.002021464
12	0x3b207332	0.0024482724
13	0xbb00c800	-0.001965046
14	0x3b51431a	0.0031930865
15	0x3b2c8c8b	0.0026328887
16	0xbb8ce8df	-0.0043002213
17	0xb9b1ccd0	-0.00033912668
18	0x3b3d66f1	0.002890047
19	0x3b247af8	0.002509771
20	0x3b29f073	0.0025930672
21	0xbb1c1ae2	-0.0023819734
22	0xba2289f6	-0.00062003674
23	0xbb045ad2	-0.0020195735
24	0xba61eb8c	-0.0008618168
25	0x3a0d0eba	0.00053809176
26	0xbb050db5	-0.002030236
27	0x38bbe878	8.9601555e-05
28	0x3b12fb1c	0.0022427505
29	0xbb118309	-0.0022203347
30	0xbaea2300	-0.0017863214
31	0xbb15ca88	-0.0022856314
32	0xbb0b9558	-0.0021298733
33	0x3b142b29	0.0022608733
34	0xbaf0a865	-0.0018360732
35	0x3b195ac5	0.002340005
36	0xbaf2391d	-0.0018480156
37	0xbb241b10	-0.0025040545
38	0xbb11fd54	-0.002227624
39	0x3ae12880	0.0017178208
40	0x3b23c26d	0.0024987713
41	0xbb249d73	-0.002511826
42	0x3b1ef45c	0.0024254536
43	0xbb26a225	-0.0025426236
44	0x3b0a2ab0	0.0021082573
45	0xbb0b1c96	-0.0021226755
46	0x3b217668	0.0024637226
47	0x3b4866b0	0.0030578785
48	0x3b2073ba	0.002448304
49	0x3b1913ad	0.0023357675
50	0xbb3546ea	-0.0027660676
51	0xb9e19cd7	-0.000430322
52	0x3b1a204b	0.0023517783
53	0xbb2841fb	-0.0025674093
54	0xbb152084	-0.0022754977
55	0xbb1ed70e	-0.002423707
56	0xba583b08	-0.00082485424
57	0xbb264bce	-0.0025374773
58	0x3b0f093b	0.002182557
59	0xbb1a68d5	-0.002356102
60	0xbb349ab3	-0.0027558028
61	0xba22df4d	-0.0006213084
62	0x3b453f88	0.0030097682
63	0x3b326e9c	0.0027226573
64	0x3b268e2b	0.0025414329
65	0x3b07f0ed	0.0020742968
66	0xbb1d8cb9	-0.0024040176
67	0xbb140f68	-0.002259219
68	0xbb142821	-0.0022606927
69	0xbb2ddb5b	-0.002652845
70	0xba64bf91	-0.00087260554
71	0x39f56c60	0.00046810787
72	0xbb0eb687	-0.0021776275
73	0x3b04b26a	0.0020247945
74	0xbb1bea80	-0.0023790896
75	0x3b167723	0.0022959195
76	0x3b1b26e3	0.0023674301
77	0xbb1f2f28	-0.0024289582
78	0xbb217e54	-0.0024641948
79	0x3b1cf61a	0.00239504
80	0xba04bc4c	-0.0005063459
81	0x39e3ad34	0.0004342586
82	0xbb19a212	-0.0023442549
83	0xbb19d719	-0.0023474155
84	0x3b160758	0.002289256
85	0xbb15212b	-0.0022755365
86	0x3aedb333	0.001813507
87	0x3afc9eeb	0.0019273435
88	0x3b1b5a07	0.0023704784
89	0xbb1af7f9	-0.0023646338
90	0xbafe8760	-0.0019419007
91	0xbb204999	-0.002445793
92	0xbb1288b6	-0.0022359318
93	0x3b12adc9	0.0022381416
94	0xbb1b8efe	-0.0023736353
95	0xbb1bed15	-0.0023792435
96	0x3b496347	0.003072934
97	0x3a0297de	0.00049817364
98	0x3b2b8ba0	0.0026175752
99	0xbb16609c	-0.0022945767
100	0x3b1ba618	0.0023750123
101	0xbb0d88c9	-0.0021596423
102	0xbb0e0cac	-0.0021675033
103	0x3b020fb0	0.0019845776
104	0xbb20ca3f	-0.002453461
105	0x3b282a76	0.0025660074
106	0x3b19d22e	0.0023471224
107	0x3b1007de	0.0021977345
108	0x3b229320	0.0024806932
109	0x3b2442d0	0.0025064237
110	0x3b1eca34	0.002422941
111	0xbb161818	-0.0022902545
112	0x3b33c495	0.0027430404
113	0xbb431f2c	-0.0029773219
114	0x3b158cb9	0.0022819473
115	0xbb31cdf2	-0.002713081
116	0xbb10fb4c	-0.002212244
117	0xbb422a3f	-0.0029627231
118	0xba9dd0d1	-0.0012040382
119	0xbacedfca	-0.0015783247
120	0xbb171679	-0.0023054166
121	0x3b01329a	0.0019713999
122	0x3b1f08ae	0.0024266648
123	0xbb1c7f3b	-0.0023879546
124	0xbb0a854f	-0.0021136587
125	0xbb0d4818	-0.0021557864
126	0xbb0f9f2d	-0.0021914945
127	0xbb1df6c7	-0.002410339
128	0xbb08b4ac	-0.0020859642
129	0x3b171774	0.002305475
130	0xbb01144b	-0.0019695933
131	0x3af49f59	0.0018663212
132	0x3ae2e654	0.0017311075
133	0xbabe143d	-0.0014501881
134	0x3b1ad6f3	0.0023626655
135	0xbb16c4c4	-0.0023005465
136	0xbb5b4bab	-0.003346185
137	0xb94332dd	-0.00018615597
138	0x3afe9a40	0.0019424632
139	0xbb520291	-0.0032044987
140	0x3b200748	0.0024418402
141	0x3b1b8369	0.002372945
142	0xbb13d9f5	-0.0022560332
143	0x3b3cc2e3	0.0028802685
144	0xbb31187e	-0.0027022655
145	0x3b820b12	0.003968605
146	0xbade6aa6	-0.001696904
147	0xbb2256f9	-0.0024771078
148	0x3b1a3fe8	0.0023536626
149	0xbb2cf37a	-0.002639024
150	0xb9dd6086	-0.0004222432
151	0xba7ce46d	-0.0009647075
152	0x398610e8	0.00025571068
153	0x3ab6ed4f	0.0013956222
154	0xb966ea0d	-0.000220217
155	0xb9d114a7	-0.00039878974
156	0x3b032561	0.0020011293
157	0xbb0d3df4	-0.002155182
158	0xbb16f2db	-0.0023032937
159	0x3b14c268	0.0022698883
160	0xbac6f2a4	-0.0015178514
161	0x3b1a1fb4	0.0023517432
162	0x3b1f26e4	0.0024284655
163	0xbb229aa1	-0.0024811404
164	0x3b1358aa	0.0022483268
165	0x3b22c2d8	0.0024835374
166	0x3b116613	0.0022186085
167	0xbb1111f5	-0.0022135947
168	0x3b173a9b	0.0023075703
169	0xbb229dce	-0.0024813297
170	0xbb25d6f1	-0.0025305117
171	0x3b23b9b0	0.0024982505
172	0xbb0b7032	-0.002127659
173	0x3b121333	0.0022289276
174	0xbb1dcc90	-0.0024078228
175	0xbaf7a45e	-0.001889359
176	0xbb1384e9	-0.002250964
177	0xbb15465b	-0.002277753
178	0xba87c2cb	-0.0010357735
179	0x394ccc60	0.00019531092
180	0xbac8938e	-0.0015302764
181	0x3b325e72	0.0027216938
182	0xbb1b4b24	-0.002369591
183	0xbb184c9d	-0.0023239024
184	0x3b1f746d	0.002433087
185	0x3b1f2691	0.0024284462
186	0x3b1af64d	0.0023645342
187	0xbada2ee5	-0.0016646056
188	0x3b31a2a5	0.0027105
189	0x3b1f669b	0.0024322632
190	0xbb3a2a18	-0.0028406437
191	0x3b340856	0.002747079
192	0x3b23bc54	0.0024984078
193	0xbb2d729c	-0.0026466018
194	0xbb210db7	-0.0024574825
195	0xbb2061e5	-0.0024472412
196	0xbb0389f0	-0.002007123
197	0x3b05a41f	0.0020392013
198	0xbb9bc85d	-0.00475411
199	0xbb5954ed	-0.0033162192
200	0x3a50effd	0.00079703314
201	0xbb092cca	-0.0020931237
202	0xbb194e63	-0.002339267
203	0xbb17e710	-0.0023178495
204	0x3b19105d	0.00233557
205	0xbb19fa9b	-0.002349532
206	0xbaf6ff00	-0.0018844306
207	0xbb2093e6	-0.0024502217
208	0xbafbebb2	-0.0019220023
209	0xb9b9e6be	-0.00035457866
210	0x3b1bf0a5	0.0023794558
211	0xb9ea4190	-0.00044680806
212	0xbb15bba6	-0.0022847443
213	0xbb102390	-0.0021993853
214	0x3b011560	0.0019696578
215	0x39a3ca0e	0.00031240325
216	0xbb197f1e	-0.0023421715
217	0xbb1c46c8	-0.00238459
218	0x3b1e7b26	0.002418229
219	0xbb1f390d	-0.002429548
220	0x3b0c139a	0.0021373988
221	0xbb1b81f6	-0.0023728586
222	0xbb386371	-0.0028135444
223	0xbb1b6623	-0.0023712001
224	0x39cd1cd8	0.00039122137
225	0x3ae0376f	0.0017106364
226	0x3aca4885	0.001543299
227	0xbb14bdf7	-0.0022696236
228	0xbb179c6f	-0.0023134013
229	0x3b0c90fd	0.0021448724
230	0xbaca95ab	-0.0015455981
231	0x3af1f48c	0.0018459721
232	0xbb231dcc	-0.0024889586
233	0xbb2f03a1	-0.0026705044
234	0x3a8af67f	0.0010602026
235	0x3b0e19c3	0.0021682836
236	0x3b1a9596	0.0023587695
237	0xbb277574	-0.0025552185
238	0xbb1fe270	-0.0024396442
239	0x3b015ae9	0.0019738025
240	0xbb2d8724	-0.0026478255
241	0xbb36134d	-0.00277825
242	0xbad84b8d	-0.0016502008
243	0x3b345fb9	0.0027522875
244	0x3b169c98	0.002298152
245	0xbb1c6ef0	-0.0023869835
246	0xbb3dc2a8	-0.0028955135
247	0x3b3f9b46	0.0029236837
248	0xbb17378f	-0.0023073887
249	0x3b177340	0.0023109466
250	0x3b1cd5cc	0.0023931144
251	0xbb1c91b2	-0.0023890552
252	0x3b0866ea	0.0020813295
253	0xbafecc7f	-0.0019439607
254	0xbb194e35	-0.0023392562
255	0xbb249201	-0.002511144

blocks.0.xlstm.mlstm_cell.igate.bias f4 [2]
0	0x3e4a52e2	0.1975818
1	0xbcc8d204	-0.024514206
